kronfluence-main/examples/tinystories2/influence_results/tinystories/scores_ekfac/pairwise_scores.safetensors (safetensors, 1464 bytes, 1 tensors)

all_modules f4 [2, 100]
0	0x4aa2dc5a	5.336621e+06
1	0x4a3b11d7	3.0649498e+06
2	0x4a80086f	4.1953835e+06
3	0x4a6e830a	3.9077785e+06
4	0x4a79f2eb	4.0951628e+06
5	0x4a0f08fb	2.3434868e+06
6	0x4a750510	4.014404e+06
7	0x4a351d65	2.9673852e+06
8	0x4a144906	2.4295055e+06
9	0x4aaf0df2	5.736185e+06
10	0x4a4c77b5	3.3499972e+06
11	0x4a70f213	3.9476528e+06
12	0x4a37d2ac	3.011755e+06
13	0x4a56424d	3.5104192e+06
14	0x4a787608	4.070786e+06
15	0x49b54154	1.4848425e+06
16	0x4a8b3842	4.561953e+06
17	0x4a62ecdd	3.7179432e+06
18	0x4a6d9026	3.8922335e+06
19	0x4a643b98	3.739366e+06
20	0x4a59e319	3.5698622e+06
21	0x4a8d5bcb	4.6320375e+06
22	0x4a0c6697	2.3003258e+06
23	0x4a6b91d0	3.859572e+06
24	0x4a488b2e	3.2857075e+06
25	0xc55bbff6	-3515.9976
26	0x4a7492aa	4.0070825e+06
27	0x4a3093eb	2.8930508e+06
28	0x4a0c37b2	2.2973245e+06
29	0x4a3c7791	3.0878442e+06
30	0x4a929393	4.8030175e+06
31	0x4a10bd9b	2.3714308e+06
32	0x4a319880	2.909728e+06
33	0x4a446db0	3.218284e+06
34	0x4a3ebc9a	3.1250305e+06
35	0x49b3577d	1.4691676e+06
36	0x4a02dd98	2.144102e+06
37	0x4a4d7baf	3.3666358e+06
38	0x49d2b030	1.725958e+06
39	0x4a88f9a0	4.4884e+06
40	0x4a46f96e	3.2599955e+06
41	0x4a5fc2ef	3.6661078e+06
42	0x4a9cc928	5.137556e+06
43	0x4a546f0c	3.480515e+06
44	0x4a617e26	3.6944735e+06
45	0x4a6858d1	3.8067722e+06
46	0x4a434a5f	3.1996398e+06
47	0x4982b2b0	1.070678e+06
48	0x4a40b923	3.1575768e+06
49	0x4a652600	3.754368e+06
50	0x49f4f9cd	2.0068416e+06
51	0x4a864b4c	4.40055e+06
52	0x49094d62	562390.1
53	0x4a5896ea	3.5486025e+06
54	0x498e7fbc	1.1673515e+06
55	0x4a8fc0a8	4.710484e+06
56	0x4a7dab17	4.1561018e+06
57	0x4a732816	3.9838775e+06
58	0x4a6ee7ac	3.914219e+06
59	0x4a49f1d4	3.308661e+06
60	0x4a4a07cf	3.3100678e+06
61	0x49c93144	1.6481685e+06
62	0x4aa0767f	5.2580475e+06
63	0x4928f641	692068.06
64	0x4a73f7e6	3.9971775e+06
65	0x4a606e6c	3.677083e+06
66	0xc66c5b73	-15126.862
67	0x4a01fab0	2.12958e+06
68	0x4a6ac9b4	3.846765e+06
69	0x4a4f820f	3.3998118e+06
70	0x4a35a94b	2.9763388e+06
71	0x4a2d2654	2.836885e+06
72	0x4a10279c	2.361831e+06
73	0x4a92b21e	4.806927e+06
74	0x4a8b1730	4.55772e+06
75	0x4a61bded	3.6985552e+06
76	0x4a0ad6cf	2.2747398e+06
77	0x4a26516c	2.724955e+06
78	0x4a585387	3.5442898e+06
79	0x4a727b7f	3.9728318e+06
80	0x4a6bddd4	3.864437e+06
81	0x4a9b25eb	5.0838935e+06
82	0x4a49897d	3.3019832e+06
83	0x49f3ea54	1.9981545e+06
84	0x49790e8e	1.0201369e+06
85	0x4a4bd639	3.3396622e+06
86	0x4a3c34f9	3.0835822e+06
87	0x4a2e123f	2.8519838e+06
88	0x4a7113bc	3.949807e+06
89	0x49a57c59	1.3556591e+06
90	0x4a759d55	4.0241492e+06
91	0x4a11b7e7	2.3874498e+06
92	0x4a39dc20	3.045128e+06
93	0x4a45aa76	3.2385575e+06
94	0x4a7730b8	4.049966e+06
95	0x4a46b331	3.2555002e+06
96	0x4a4096fe	3.1553915e+06
97	0x4a85b003	4.3806735e+06
98	0x4a3f0f8a	3.1303385e+06
99	0x4a64ef60	3.750872e+06
100	0x4a8c2fdc	4.593646e+06
101	0x4b1be65e	1.0217054e+07
102	0x4aad2fef	5.6749995e+06
103	0x4acff546	6.814371e+06
104	0x4a8af697	4.5535475e+06
105	0x4afc7a0a	8.273157e+06
106	0x4a987594	4.995786e+06
107	0x4a9cce67	5.1382275e+06
108	0x4a864166	4.399283e+06
109	0x4a8fcc30	4.71196e+06
110	0x4a8bb60e	4.578055e+06
111	0x4ac0a561	6.3126245e+06
112	0x4b00ff29	8.453929e+06
113	0x4a98d929	5.0085325e+06
114	0x4aa873e7	5.5198595e+06
115	0x4a8ef692	4.684617e+06
116	0x4ad43485	6.9535385e+06
117	0x4aa23366	5.314995e+06
118	0x4a6ddaee	3.8970195e+06
119	0x4ac870bc	6.56803e+06
120	0x4a5ecc45	3.6503212e+06
121	0x4ad8be5d	7.1022545e+06
122	0x4a3cee90	3.09546e+06
123	0x4a931926	4.820115e+06
124	0x4a6e587f	3.9050558e+06
125	0xc6c1061c	-24707.055
126	0x4abbc764	6.153138e+06
127	0x4a619cd8	3.696438e+06
128	0x4a81cc5e	4.253231e+06
129	0x4aceadc7	6.7724515e+06
130	0x4aa462d5	5.3866025e+06
131	0x49fabd76	2.0540628e+06
132	0x4afa0a03	8.1932815e+06
133	0x4aa07173	5.2574015e+06
134	0x4ab2ac51	5.8547605e+06
135	0x4a02b420	2.141448e+06
136	0x4a8a07d0	4.522984e+06
137	0x4a915f1d	4.7635345e+06
138	0x4a96b081	4.9377925e+06
139	0x4a86565a	4.401965e+06
140	0x4a9d1583	5.1473295e+06
141	0x4b06667e	8.808062e+06
142	0x4ac957d9	6.5976125e+06
143	0x4ab85e6c	6.041398e+06
144	0x4ab5a760	5.952432e+06
145	0x4aa15866	5.286963e+06
146	0x4a9400a0	4.849744e+06
147	0x4a1bb0ef	2.5508438e+06
148	0x4a86eda1	4.4213285e+06
149	0x4aad8fed	5.6872865e+06
150	0x4b0c396f	9.189743e+06
151	0x4ad2d69d	6.9087505e+06
152	0x49a76c1d	1.3715236e+06
153	0x4ab2ecb5	5.8630025e+06
154	0x4a8ffaa3	4.7179055e+06
155	0x4ad998b4	7.130202e+06
156	0x4a69ed14	3.832645e+06
157	0x4aba45dc	6.10379e+06
158	0x4aa87680	5.520192e+06
159	0x4a9c1990	5.11508e+06
160	0x4a774f20	4.051912e+06
161	0x4a575e68	3.528602e+06
162	0x4ab350e6	5.875827e+06
163	0x4949d808	826752.5
164	0x4a6dfa66	3.8990335e+06
165	0x4a8e3621	4.6599845e+06
166	0x4702c806	33480.023
167	0x4aacd8c2	5.663841e+06
168	0x4a6bc155	3.8626132e+06
169	0x4aa2c625	5.3337785e+06
170	0x4a995764	5.02469e+06
171	0x4aacbde7	5.6604035e+06
172	0x4a6eed9c	3.914599e+06
173	0x4aa75850	5.48356e+06
174	0x4aa4a17e	5.394623e+06
175	0x4a89717d	4.5037425e+06
176	0x4abe024d	6.2262145e+06
177	0x4a8965ed	4.5022625e+06
178	0x4a982053	4.9848735e+06
179	0x4a827087	4.2742435e+06
180	0x4b070a32	8.84997e+06
181	0x4abe60bb	6.2383015e+06
182	0x4ab49f18	5.918604e+06
183	0x499e9ca4	1.2993485e+06
184	0x4a679ec1	3.7948642e+06
185	0x4a986176	4.993211e+06
186	0x4aed9dc0	7.786208e+06
187	0x4a90822b	4.7352535e+06
188	0x4ae0c261	7.3649125e+06
189	0x4a056914	2.185797e+06
190	0x4a8ed3a3	4.6801455e+06
191	0x4a8b3a42	4.562209e+06
192	0x4a85bd04	4.382338e+06
193	0x4ab90cec	6.063734e+06
194	0x4af2205f	7.9339995e+06
195	0x4a99dcc2	5.041761e+06
196	0x4a8e08d3	4.6541855e+06
197	0x4abb6f78	6.141884e+06
198	0x4abd92be	6.211935e+06
199	0x4a6301e3	3.7192888e+06
