kronfluence-main/examples/tinystories2/influence_results/tinystories/factors_ekfac/activation_eigenvalues.safetensors (safetensors, 17832 bytes, 32 tensors)

transformer.h.0.attn.c_attn f4 [65]
-3.145347e-07 0.15219226 0.19145496 0.2115725 0.21923454 0.24193965 0.2558862 0.2708316
0.27329952 0.2873014 0.303434 0.314646 0.32195395 0.35385072 0.35761735 0.3755912
0.38633183 0.39352483 0.4119089 0.41750705 0.44249365 0.45367175 0.4680366 0.492739
0.5014642 0.5228534 0.5378755 0.5409337 0.554273 0.5754425 0.5904224 0.59681183
0.65039366 0.66097057 0.67244154 0.7325454 0.74126846 0.7758562 0.79378664 0.81540126
0.840097 0.8812492 0.90110254 0.9354532 0.9613148 0.9780523 1.0421164 1.0628462
1.1065453 1.1631012 1.2587304 1.2660991 1.3025287 1.4103166 1.4295988 1.5203817
1.647583 1.7724571 1.8579847 2.0035357 2.9032695 3.1936173 3.7629514 4.1049423
11.396389
00000000: 52dd a8b4 4ad8 1b3e c50c 443e 76a6 583e
00000010: 057f 603e 07bf 773e 8403 833e 71aa 8a3e
00000020: eaed 8b3e 2b19 933e b45b 9b3e 4819 a13e
00000030: 26d7 a43e ec2b b53e 9f19 b73e 7d4d c03e
00000040: 49cd c53e 167c c93e b9e5 d23e 7cc3 d53e
00000050: 878e e23e aa47 e83e 7ea2 ef3e 4948 fc3e
00000060: f55f 003f b8d9 053f 35b2 093f a27a 0a3f
00000070: d6e4 0d3f 3350 133f ec25 173f a9c8 183f
00000080: 3380 263f 5e35 293f 2125 2c3f 1888 3b3f
00000090: c5c3 3d3f 839e 463f 9a35 4b3f 23be 503f
000000a0: 9910 573f 8c99 613f a8ae 663f dc79 6f3f
000000b0: ba18 763f a361 7a3f 1264 853f 580b 883f
000000c0: 47a3 8d3f 80e0 943f 141e a13f 890f a23f
000000d0: 43b9 a63f 4185 b43f 18fd b63f de9b c23f
000000e0: 00e4 d23f e0df e23f 71d2 ed3f ee39 0040
000000f0: 2bcf 3940 3a64 4c40 32d4 7040 b05b 8340
00000100: 9c57 3641

transformer.h.0.attn.c_proj f4 [65]
0.0025056647 0.0031167357 0.0032748266 0.0034136765 0.0039177146 0.0039591775 0.004457335 0.0048913094
0.0053493 0.0054213805 0.005614183 0.005894861 0.0059269066 0.0063939183 0.0068073627 0.0069058603
0.0073453514 0.0077121602 0.00793876 0.008574658 0.008634203 0.008790795 0.00897916 0.009587227
0.010169896 0.010658258 0.010863254 0.010889708 0.011965708 0.012449549 0.012526379 0.0130650895
0.013820903 0.014249904 0.014962509 0.015938805 0.016664281 0.017354518 0.018057808 0.019298801
0.02079325 0.02090125 0.022192439 0.024245828 0.02490194 0.027229566 0.028033666 0.02960042
0.03026442 0.032368682 0.035407495 0.038241915 0.040225647 0.05179169 0.05496483 0.055495605
0.059772138 0.07242164 0.09992346 0.10539294 0.13427852 0.18546526 0.20685932 0.27178076
1.3691844
00000000: 1436 243b 2642 4c3b 799e 563b fdb7 5f3b
00000010: 2c60 803b fdbb 813b d60e 923b 4747 a03b
00000020: 2e49 af3b d6a5 b13b 2ef7 b73b ae29 c13b
00000030: 7f36 c23b 1384 d13b 4c10 df3b 8e4a e23b
00000040: 46b1 f03b 4ab6 fc3b 9311 023c b97c 0c3c
00000050: 7976 0d3c 4407 103c 541d 133c bf13 1d3c
00000060: a39f 263c f99f 2e3c cafb 313c bf6a 323c
00000070: d10b 443c 31f9 4b3c 713b 4d3c f50e 563c
00000080: 1271 623c 6e78 693c 5025 753c 1992 823c
00000090: 8883 883c 102b 8e3c f8ed 933c 8518 9e3c
000000a0: 9b56 aa3c 1939 ab3c ebcc b53c 309f c63c
000000b0: 27ff cb3c 8a10 df3c dca6 e53c 947c f23c
000000c0: 17ed f73c 0695 043d 7307 113d 8ea3 1c3d
000000d0: a6c3 243d 8623 543d cd22 613d 5c4f 633d
000000e0: a1d3 743d cc51 943d aca4 cc3d 41d8 d73d
000000f0: 4f80 093e 9bea 3d3e eed2 533e d926 8b3e
00000100: 6f41 af3f

transformer.h.0.mlp.c_fc f4 [65]
-1.1158331e-07 0.01801483 0.128086 0.14950716 0.16455443 0.18845722 0.19724303 0.19961868
0.22635199 0.23704596 0.25478387 0.26846698 0.27500886 0.2813675 0.2935418 0.32930788
0.33231676 0.3477912 0.36474973 0.38186023 0.38748795 0.41081497 0.43688065 0.44346964
0.4547248 0.47271153 0.49076712 0.5059123 0.52503747 0.55473506 0.57200074 0.5821454
0.62517434 0.6397077 0.6669338 0.713167 0.7166786 0.7262293 0.77876675 0.80169445
0.83862644 0.87306386 0.93036044 0.95647496 0.98445463 1.0481344 1.0848597 1.1037799
1.1257143 1.2190834 1.2487177 1.2741723 1.3889307 1.470048 1.5404043 1.6675947
1.7141829 1.8121557 2.5283778 2.7092557 2.8380609 3.6766768 4.391735 5.7384934
22.1025
00000000: 939f efb3 d693 933c fa28 033e 6818 193e
00000010: f580 283e eefa 403e 14fa 493e d768 4c3e
00000020: d1c8 673e 2dbc 723e 0873 823e 8174 893e
00000030: f6cd 8c3e 670f 903e 1c4b 963e 0b9b a83e
00000040: 6c25 aa3e b011 b23e 7ac0 ba3e 2f83 c33e
00000050: d264 c63e 5756 d23e d2ae df3e 740e e33e
00000060: b0d1 e83e 3f07 f23e d445 fb3e 7883 013f
00000070: db68 063f 1e03 0e3f a46e 123f 7b07 153f
00000080: 6d0b 203f e2c3 233f 2cbc 2a3f 1d92 363f
00000090: 4078 373f 2aea 393f 425d 473f d93b 4d3f
000000a0: 39b0 563f 1d81 5f3f 1a2c 6e3f 8bdb 743f
000000b0: 3805 7c3f 4529 863f afdc 8a3f a948 8d3f
000000c0: 6817 903f ed0a 9c3f fbd5 9f3f 1418 a33f
000000d0: 7bc8 b13f 882a bc3f f82b c53f be73 d53f
000000e0: 586a db3f b8f4 e73f f1d0 2140 7264 2d40
000000f0: caa2 3540 ac4e 6b40 1889 8c40 bda1 b740
00000100: ecd1 b041

transformer.h.0.mlp.c_proj f4 [257]
0.0013569602 0.0013853388 0.0014579898 0.0014950318 0.0015267658 0.0016015864 0.001639743 0.0017125746
0.0017359229 0.0017582567 0.0018066914 0.0018250626 0.0018382363 0.001957768 0.0019787024 0.0020028725
0.0020355845 0.0020591659 0.0021109248 0.0021224685 0.0021575957 0.0022268533 0.0022591602 0.002286412
0.0023404108 0.0023446616 0.002359687 0.0024074914 0.0024250038 0.0024414433 0.002463773 0.0025428755
0.0025775016 0.0026247983 0.0026630755 0.002705523 0.002746641 0.0027609789 0.0028013117 0.0028421707
0.002865793 0.0028928407 0.0029224611 0.0030034985 0.0030208586 0.0030661393 0.003146536 0.0031868822
0.0032279324 0.0033126413 0.0033353444 0.0033535426 0.0034140896 0.0034424753 0.003506003 0.003517928
0.0035812438 0.0036370722 0.0036844863 0.0037157573 0.0037841182 0.0038688658 0.0039010758 0.0039359042
0.003976972 0.004005083 0.0040630074 0.0041580754 0.004183011 0.0042786878 0.004309494 0.0043609743
0.004456035 0.004485931 0.0045488854 0.0045968927 0.0046093133 0.0046762587 0.004779547 0.0048209853
0.004889924 0.0050282483 0.0050780363 0.0051685786 0.005235959 0.0052633113 0.0053963945 0.005475253
0.0055356543 0.0056476044 0.005705211 0.005732131 0.0057968865 0.0059449743 0.006037879 0.0061248178
0.0061838115 0.0062190467 0.006345948 0.006557666 0.0066046496 0.0068116384 0.0068626828 0.0069090417
0.0069717513 0.007045303 0.0071659824 0.007233128 0.007369031 0.007471645 0.007567918 0.00764829
0.00785749 0.008001208 0.008032232 0.008260896 0.008353191 0.008452002 0.008517979 0.008567771
0.008785767 0.008853919 0.009093909 0.009288945 0.009342118 0.009520035 0.009545747 0.00976741
0.010090433 0.01025281 0.010348031 0.010431328 0.010566666 0.01094 0.010974187 0.011376848
0.011432773 0.0114656165 0.011668296 0.011787139 0.012009393 0.012247629 0.012293548 0.0125337215
0.012815054 0.013152096 0.013463523 0.013754783 0.014102376 0.014162762 0.014197912 0.014620603
0.014782998 0.015334168 0.015579912 0.015714293 0.015979722 0.016443053 0.016787458 0.016811717
0.01720509 0.01787322 0.018164456 0.018623512 0.01880584 0.01934883 0.019471183 0.020144477
0.020576911 0.020866627 0.021610301 0.022065742 0.022432683 0.02269926 0.023370823 0.023973173
0.024326243 0.024691358 0.025548296 0.026472796 0.026677793 0.027251044 0.028228547 0.029363867
0.0302569 0.030732658 0.03119974 0.03161088 0.032304183 0.033391636 0.03422572 0.034807794
0.036008928 0.0370582 0.037948728 0.038752154 0.0397349 0.041331314 0.041847892 0.043344393
0.04412288 0.046260018 0.047628876 0.047937263 0.04868261 0.05002953 0.05258781 0.0559788
0.060764547 0.06201232 0.06357496 0.06430903 0.06730923 0.06753434 0.070646875 0.07201516
0.07446175 0.07652318 0.07909993 0.08124302 0.082309395 0.086510256 0.08814148 0.09358732
0.09677639 0.09848672 0.10190808 0.107255444 0.110213965 0.11382484 0.12127269 0.12470996
0.13972709 0.14066815 0.14793432 0.15893678 0.16280317 0.17147562 0.18226951 0.18541771
0.20722102 0.21960677 0.23144582 0.23737866 0.28451714 0.29159254 0.31619364 0.3431745
0.36539054 0.40479076 0.4246362 0.5158093 0.559991 0.6649578 0.72123194 0.8533896
00000000: 07dc b13a 4294 b53a 051a bf3a f1f4 c33a
00000010: c21d c83a 52ec d13a a5ec d63a 7878 e03a
00000020: e887 e33a 4e75 e63a 81ce ec3a f036 ef3a
00000030: faf0 f03a e64d 003b 1ead 013b a042 033b
00000040: 7167 053b 12f3 063b 7157 0a3b 1d19 0b3b
00000050: 7366 0d3b 66f0 113b 6b0e 143b a1d7 153b
00000060: 9461 193b e5a8 193b faa4 1a3b 01c7 1d3b
00000070: d0ec 1e3b 9f00 203b 4077 213b 5fa6 263b
00000080: 4deb 283b cf04 2c3b fe86 2e3b 254f 313b
00000090: fd00 343b 8af1 343b 3696 373b b643 3a3b
000000a0: 07d0 3b3b d095 3d3b c386 3f3b 58d6 443b
000000b0: 99f9 453b 48f1 483b 1d36 4e3b 03db 503b
000000c0: b88b 533b e618 593b cb95 5a3b 1cc7 5b3b
000000d0: ebbe 5f3b 279b 613b f8c4 653b 0a8d 663b
000000e0: 4db3 6a3b f25b 6e3b 6c77 713b 1084 733b
000000f0: f8fe 773b cc8c 7d3b 31a9 7f3b c2f8 803b
00000100: 4251 823b 123d 833b fa22 853b 7740 883b
00000110: a411 893b 3c34 8c3b a836 8d3b 81e6 8e3b
00000120: ee03 923b b7fe 923b d10e 953b 88a1 963b
00000130: b909 973b 4d3b 993b bf9d 9c3b 5bf9 9d3b
00000140: a83b a03b 01c4 a43b a865 a63b 2e5d a93b
00000150: 6892 ab3b db77 ac3b 3dd4 b03b c069 b33b
00000160: 6f64 b53b 8a0f b93b c7f2 ba3b 9ad4 bb3b
00000170: cff3 bd3b 0fce c23b 66d9 c53b b2b2 c83b
00000180: 92a1 ca3b 25c9 cb3b acf1 cf3b b1e1 d63b
00000190: d16b d83b 2a34 df3b 5be0 e03b 3e65 e23b
000001a0: 4a73 e43b 49dc e63b 9ed0 ea3b e003 ed3b
000001b0: ea77 f13b b3d4 f43b 4cfc f73b 829e fa3b
000001c0: b4bc 003c 8017 033c 9f99 033c b658 073c
000001d0: d3db 083c 447a 0a3c fe8e 0b3c d65f 0c3c
000001e0: 2df2 0f3c 0710 113c 9efe 143c a930 183c
000001f0: af0f 193c ecf9 1b3c c465 1c3c 7d07 203c
00000200: 5852 253c 67fb 273c ca8a 293c 29e8 2a3c
00000210: cf1f 2d3c b03d 333c 14cd 333c f665 3a3c
00000220: 8750 3b3c 48da 3b3c 612c 3f3c d81e 413c
00000230: 0cc3 443c 48aa 483c e16a 493c 3d5a 4d3c
00000240: 3bf6 513c e47b 573c 1c96 5c3c be5b 613c
00000250: a70d 673c ee0a 683c 5c9e 683c 418b 6f3c
00000260: 6334 723c 2a3c 7b3c e342 7f3c 43bb 803c
00000270: e8e7 823c 95b3 863c da85 893c bab8 893c
00000280: b0f1 8c3c dc6a 923c a0cd 943c 5690 983c
00000290: b40e 9a3c 7081 9e3c 0882 9f3c 0806 a53c
000002a0: e990 a83c 7df0 aa3c 1608 b13c 37c3 b43c
000002b0: bfc4 b73c ccf3 b93c 2b74 bf3c 6363 c43c
000002c0: d447 c73c 8845 ca3c a94a d13c 7add d83c
000002d0: 638b da3c 953d df3c 8e3f e73c 7e8c f03c
000002e0: 51dd f73c 0ec3 fb3c 9996 ff3c 697a 013d
000002f0: 6451 043d abc5 083d 4530 0c3d 9e92 0e3d
00000300: 197e 133d 57ca 173d 2070 1b3d 94ba 1e3d
00000310: 10c1 223d 064b 293d b268 2b3d e489 313d
00000320: 31ba 343d 257b 3d3d 7f16 433d dd59 443d
00000330: 6b67 473d c4eb 4c3d 5166 573d 074a 653d
00000340: 3fe4 783d a100 7e3d 9733 823d 74b4 833d
00000350: 6cd9 893d 724f 8a3d 4faf 903d af7c 933d
00000360: 677f 983d 2fb8 9c3d 25ff a13d be62 a63d
00000370: d491 a83d 4a2c b13d 8583 b43d b5aa bf3d
00000380: b332 c63d 68b3 c93d 2fb5 d03d bea8 db3d
00000390: dcb7 e13d ff1c e93d d15d f83d ef67 ff3d
000003a0: 9e14 0f3e 500b 103e 187c 173e 53c0 223e
000003b0: e0b5 263e 4e97 2f3e dca4 3a3e 24de 3d3e
000003c0: bf31 543e 99e0 603e 2200 6d3e 6413 733e
000003d0: 3bac 913e 9e4b 953e 22e4 a13e 91b4 af3e
000003e0: 7814 bb3e bc40 cf3e ea69 d93e 140c 043f
000003f0: 925b 0f3f ad3a 2a3f a8a2 383f be77 5a3f

transformer.h.1.attn.c_attn f4 [65]
-6.933172e-07 0.012807601 0.058390204 0.06131428 0.070312545 0.083839044 0.10421228 0.11149148
0.12297741 0.16787437 0.16852218 0.17434749 0.17631684 0.19972077 0.21608818 0.22448285
0.23866944 0.26313037 0.2960607 0.3052231 0.33257928 0.35080168 0.3611546 0.36842495
0.37990835 0.39913622 0.42118186 0.44199663 0.46082315 0.49705306 0.5215988 0.52952164
0.553699 0.57936376 0.59839076 0.6172031 0.63736105 0.6690221 0.7007543 0.7064584
0.74154305 0.7638678 0.77829313 0.8276633 0.8667113 0.8873851 0.9473382 0.9910121
1.0409219 1.050728 1.0702775 1.1653335 1.2658497 1.3429452 1.3584051 1.467645
1.5487355 1.9290137 2.2090924 2.3921068 2.524667 2.9038432 5.4051595 6.586421
15.244877
00000000: 651c 3ab5 f9d6 513c 912a 6f3d af24 7b3d
00000010: 0600 903d ceb3 ab3d 3f6d d53d a555 e43d
00000020: 95db fb3d 42e7 2b3e 1491 2c3e 2688 323e
00000030: 678c 343e 9a83 4c3e 3846 5d3e d5de 653e
00000040: c365 743e 06b9 863e 4595 973e 3446 9c3e
00000050: d547 aa3e 479c b33e 41e9 b83e 32a2 bc3e
00000060: 5983 c23e 955b cc3e 26a5 d73e 624d e23e
00000070: 03f1 eb3e bd7d fe3e 8087 053f bb8e 073f
00000080: 38bf 0d3f 2f51 143f 2330 193f 0601 1e3f
00000090: 182a 233f 0845 2b3f a264 333f 75da 343f
000000a0: c4d5 3d3f d78c 433f 383e 473f bee1 533f
000000b0: cbe0 5d3f ab2b 633f c284 723f f8b2 7d3f
000000c0: ee3c 853f 417e 863f dafe 883f a629 953f
000000d0: 5d07 a23f a1e5 ab3f 38e0 ad3f cbdb bb3f
000000e0: f73c c63f ece9 f63f c561 0d40 4718 1940
000000f0: 2594 2140 91d8 3940 11f7 ac40 f6c3 d240
00000100: 04eb 7341

transformer.h.1.attn.c_proj f4 [65]
0.0014566578 0.001692046 0.0020330218 0.0021500958 0.0021712268 0.0024791013 0.0026398625 0.0027946313
0.0029474352 0.0031177006 0.0033899625 0.0036445796 0.0036975376 0.0038146223 0.0042460593 0.0043848506
0.0046430975 0.0051128133 0.0054877545 0.0055898647 0.006071021 0.0066757537 0.0067591257 0.006806783
0.0072866394 0.007562783 0.007973388 0.00803002 0.008257884 0.009053534 0.0095880125 0.009959054
0.010396 0.010544784 0.01138143 0.011747118 0.012243085 0.013008815 0.013224884 0.01426014
0.014630385 0.014997678 0.01628313 0.017747361 0.019924292 0.020342277 0.021033246 0.022485092
0.024240656 0.025158856 0.027373798 0.030377423 0.030838028 0.035920966 0.038890157 0.039731756
0.049916845 0.056022454 0.061192237 0.08519732 0.08682139 0.11060195 0.11394559 0.15697706
1.1456938
00000000: 53ed be3a a4c7 dd3a 723c 053b 9fe8 0c3b
00000010: 244b 0e3b 6b78 223b 8b01 2d3b 2226 373b
00000020: c229 413b 5652 4c3b 222a 5e3b e6d9 6e3b
00000030: 6352 723b befe 793b 8722 8b3b cbae 8f3b
00000040: 2025 983b 6389 a73b 9fd2 b33b 2f2b b73b
00000050: 6aef c63b 48c0 da3b a87b dd3b 6f0b df3b
00000060: c3c4 ee3b 39d1 f73b d0a2 023c 5890 033c
00000070: 134c 073c 4655 143c 0a17 1d3c 4d2b 233c
00000080: fc53 2a3c 08c4 2c3c 2d79 3a3c fc76 403c
00000090: 3897 483c ed22 553c 2fad 583c 5da3 693c
000000a0: 48b4 6f3c d2b8 753c 3364 853c ea62 913c
000000b0: 4538 a33c d9a4 a63c ea4d ac3c a832 b83c
000000c0: 5794 c63c f219 ce3c 043f e03c 13da f83c
000000d0: 08a0 fc3c dd21 133d 494b 1f3d c4bd 223d
000000e0: 9b75 4c3d cd77 653d b6a4 7a3d ef7b ae3d
000000f0: 6acf b13d 4683 e23d 4e5c e93d 98be 203e
00000100: 18a6 923f

transformer.h.1.mlp.c_fc f4 [65]
-1.436311e-07 0.004272612 0.07038944 0.08344313 0.09213589 0.10990135 0.1417745 0.15476361
0.18497883 0.19525065 0.2062958 0.22204252 0.22965926 0.23715597 0.27450663 0.2785454
0.2891002 0.3245479 0.3607976 0.37087145 0.394369 0.43276188 0.458971 0.48063803
0.5005571 0.51151025 0.5544365 0.5832198 0.600604 0.6083618 0.66216224 0.676397
0.70747626 0.7363002 0.7508513 0.77976936 0.8253358 0.8417631 0.8697716 0.8983202
0.9352087 0.9704272 1.0341355 1.072702 1.1138018 1.1421076 1.1697546 1.2411002
1.2578318 1.3291489 1.3929656 1.4684935 1.6144457 1.6380092 1.773461 1.907677
2.0376248 2.456497 2.911007 3.2023437 3.6429632 3.9405246 7.062595 8.748644
28.260143
00000000: 0439 1ab4 4401 8c3b 5728 903d 3be4 aa3d
00000010: beb1 bc3d f613 e13d 562d 113e 5a7a 1e3e
00000020: 176b 3d3e c9ef 473e 353f 533e 1d5f 633e
00000030: cc2b 6b3e 04d9 723e 228c 8c3e 819d 8e3e
00000040: f104 943e 242b a63e 77ba b83e dde2 bd3e
00000050: bcea c93e f792 dd3e 3ffe ea3e 3016 f63e
00000060: 8324 003f 56f2 023f 8def 0d3f e54d 153f
00000070: 2fc1 193f 99bd 1b3f 7783 293f 5b28 2d3f
00000080: 2a1d 353f 2b7e 3c3f ca37 403f f79e 473f
00000090: 3549 533f c97d 573f 5aa9 5e3f 50f8 653f
000000a0: d669 6f3f eb6d 783f 8d5e 843f 4d4e 893f
000000b0: 0f91 8e3f 9530 923f 85ba 953f 5fdc 9e3f
000000c0: a200 a13f 8d21 aa3f b24c b23f 98f7 bb3f
000000d0: 28a6 ce3f 49aa d13f c500 e33f c32e f43f
000000e0: 7268 0240 3f37 1d40 f04d 3a40 33f3 4c40
000000f0: 4f26 6940 8e31 7c40 c700 e240 72fa 0b41
00000100: c614 e241

transformer.h.1.mlp.c_proj f4 [257]
0.0008280272 0.00087896676 0.0009992847 0.0010323441 0.0010847114 0.0011224786 0.0011301386 0.0011544656
0.0012215043 0.0012401938 0.001259553 0.0012933278 0.0013195697 0.0013531985 0.0013620564 0.0013990579
0.0014140947 0.0014259554 0.0014614831 0.0014687058 0.001477043 0.0014887493 0.00153148 0.0015721432
0.0016186751 0.0016276421 0.0016513382 0.0016759371 0.0017170246 0.0017246376 0.001771115 0.0017725922
0.0017994756 0.0018237463 0.0018464135 0.0018616695 0.0018784261 0.0019004818 0.0019210296 0.0019666702
0.0020153506 0.002041844 0.0020757865 0.0020906236 0.0021192825 0.00212824 0.0021592793 0.0021888118
0.0021922484 0.002229153 0.0022541452 0.002318579 0.002321724 0.0023468647 0.0023693922 0.0024339498
0.0024613587 0.002504181 0.002515759 0.0025525966 0.0025786124 0.0026169321 0.0026242565 0.0026622768
0.0026926543 0.00275645 0.0027905947 0.0028102694 0.0028544008 0.0029270216 0.0029434063 0.0029774364
0.0030156863 0.0030403126 0.0030748574 0.0031226377 0.003224455 0.0032495805 0.0032534504 0.0033197217
0.0033739174 0.0033921858 0.00343962 0.0034858193 0.0035617584 0.0035812494 0.0036700966 0.0037277143
0.0037839192 0.003808026 0.0038426379 0.0038905514 0.003906358 0.003978353 0.0040419353 0.004095747
0.004166362 0.004214683 0.0042599887 0.004337896 0.0043688375 0.004455848 0.004572829 0.0046218084
0.004664493 0.0046876604 0.0047489535 0.004801445 0.004888723 0.004952595 0.005025688 0.0051162145
0.005180661 0.005267265 0.0053616543 0.005405532 0.0055429097 0.0056538763 0.005682735 0.0057630464
0.005783243 0.0059652263 0.0060084993 0.006107884 0.006274046 0.0063727754 0.006394798 0.0065075587
0.006565309 0.0067044916 0.0067554344 0.0068745404 0.0070928023 0.007272947 0.007305471 0.0073545054
0.0074836626 0.007538744 0.007726795 0.007802902 0.0080483835 0.00818379 0.008334948 0.008461332
0.008577555 0.008815745 0.008887605 0.009044554 0.009267588 0.009469866 0.009617665 0.009673431
0.009859715 0.009960975 0.010271731 0.0103637455 0.0104624005 0.010612984 0.011074823 0.011140925
0.011232978 0.011486426 0.011799849 0.011895549 0.011979657 0.012379206 0.012668479 0.012905017
0.013202079 0.013300459 0.013607396 0.014106791 0.014343509 0.014817273 0.014887463 0.015446901
0.01560054 0.016315872 0.01669924 0.016757624 0.017270578 0.01745668 0.017827425 0.018060833
0.018480679 0.019085638 0.019432783 0.020210199 0.020698903 0.021712216 0.022118201 0.022610221
0.023473106 0.023772148 0.024046274 0.0246004 0.025125131 0.026747992 0.027655184 0.02836042
0.02999452 0.030085962 0.030275894 0.03217171 0.032972556 0.0342869 0.0353128 0.03620359
0.0372219 0.03876834 0.040297575 0.04156593 0.04254936 0.045624208 0.046784457 0.04742922
0.04865154 0.050039757 0.053238098 0.054445475 0.05697273 0.05970699 0.06195455 0.06532857
0.06771221 0.06882903 0.069424726 0.07280507 0.07452488 0.07890161 0.084451325 0.08871171
0.089975424 0.09233788 0.09622865 0.10068183 0.106460355 0.11088895 0.11465436 0.12374087
0.13002588 0.13534366 0.15002134 0.16329764 0.173846 0.1790622 0.19794638 0.22930743
0.26354694 0.33267263 0.35640422 0.4005454 0.46034804 0.5214494 0.66047645 0.8553196
00000000: f70f 593a 766a 663a 6efa 823a b84f 873a
00000010: e02c 8e3a 2220 933a 2921 943a 7051 973a
00000020: e21a a03a 008e a23a 9617 a53a e184 a93a
00000030: 69f5 ac3a cf5d b13a 0787 b23a 9860 b73a
00000040: 2559 b93a 20e7 ba3a 3c8f bf3a 9781 c03a
00000050: 5799 c13a 2322 c33a f1bb c83a 5f10 ce3a
00000060: b929 d43a 9b56 d53a b771 d83a 1eab db3a
00000070: c90d e13a 3c0d e23a c224 e83a 5356 e83a
00000080: 62dc eb3a c50a ef3a 5b03 f23a 4303 f43a
00000090: 8535 f63a 9619 f93a 0fcb fb3a 40e3 003b
000000a0: f913 043b 75d0 053b eb09 083b d802 093b
000000b0: a9e3 0a3b f179 0b3b b282 0d3b 2b72 0f3b
000000c0: d3ab 0f3b fb16 123b 48ba 133b 4df3 173b
000000d0: 1128 183b dbcd 193b ce47 1b3b e782 1f3b
000000e0: bf4e 213b 2f1d 243b 6fdf 243b 7749 273b
000000f0: f0fd 283b d680 2b3b b8fb 2b3b 9879 2e3b
00000100: 3e77 303b 8fa5 343b 69e2 363b 7f2c 383b
00000110: e610 3b3b 46d3 3f3b 2ae6 403b 1821 433b
00000120: d2a2 453b fb3f 473b 8c83 493b 2ba5 4c3b
00000130: 6151 533b eaf6 543b d737 553b b08f 593b
00000140: f11c 5d3b 6f4f 5e3b 3f6b 613b 5872 643b
00000150: 646c 693b 65b3 6a3b 0186 703b ab4c 743b
00000160: a1fb 773b 1390 793b c4d4 7b3b 9ff8 7e3b
00000170: e800 803b d85c 823b 3672 843b 9e35 863b
00000180: fa85 883b 531b 8a3b 6097 8b3b e924 8e3b
00000190: 7728 8f3b 5d02 923b acd7 953b 8a72 973b
000001a0: 9ad8 983b f29a 993b 1c9d 9b3b 7155 9d3b
000001b0: 9531 a03b 6149 a23b 87ae a43b eba5 a73b
000001c0: 89c2 a93b 0599 ac3b d1b0 af3b e420 b13b
000001d0: 4ca1 b53b 2744 b93b 3c36 ba3b f0d7 bc3b
000001e0: 5c81 bd3b f277 c33b f2e2 c43b a524 c83b
000001f0: 8396 cd3b b7d2 d03b 748b d13b 5c3d d53b
00000200: ce21 d73b 5ab1 db3b b15c dd3b d343 e13b
00000210: bd6a e83b e751 ee3b bc62 ef3b 10fe f03b
00000220: 8339 f53b 9107 f73b 0e31 fd3b 7caf ff3b
00000230: 5edd 033c 4e15 063c 4e8f 083c 66a1 0a3c
00000240: e088 0c3c ea6f 103c 519d 113c 9c2f 143c
00000250: 15d7 173c 7f27 1b3c 6993 1d3c 4f7d 1e3c
00000260: a48a 213c 5b33 233c c34a 283c b3cc 293c
00000270: 7d6a 2b3c 15e2 2d3c 2d73 353c 6d88 363c
00000280: 860a 383c 9031 3c3c 2754 413c 8ce5 423c
00000290: 5346 443c 27d2 4a3c 748f 4f3c 906f 533c
000002a0: 884d 583c 2bea 593c 8ef1 5e3c 2b20 673c
000002b0: 0a01 6b3c 26c4 723c 8cea 733c 0015 7d3c
000002c0: 6899 7f3c dda8 853c d8cc 883c 4947 893c
000002d0: 077b 8d3c 5001 8f3c d20a 923c 50f4 933c
000002e0: cb64 973c 7c59 9c3c 8031 9f3c dc8f a53c
000002f0: bf90 a93c d1dd b13c 3b31 b53c 1239 b93c
00000300: ac4a c03c cfbd c23c b1fc c43c c786 c93c
00000310: 38d3 cd3c 9b1e db3c 208d e23c 1d54 e83c
00000320: 11b7 f53c d676 f63c 2705 f83c 7cc6 033d
00000330: 3b0e 073d 6c70 0c3d 28a4 103d 374a 143d
00000340: fe75 183d 8dcb 1e3d 120f 253d 0941 2a3d
00000350: 3d48 2e3d 73e0 3a3d 0fa1 3f3d 2445 423d
00000360: d646 473d 7df6 4c3d 3110 5a3d 3802 5f3d
00000370: 3d5c 693d 518f 743d 0ec4 7d3d fcca 853d
00000380: b3ac 8a3d 3cf6 8c3d 8d2e 8e3d d31a 953d
00000390: 80a0 983d 2b97 a13d d1f4 ac3d 7cae b53d
000003a0: 0945 b83d a41b bd3d 8713 c53d 4632 ce3d
000003b0: e307 da3d bf19 e33d e8cf ea3d da6b fd3d
000003c0: 8125 053e 8797 0a3e 329f 193e 7f37 273e
000003d0: b004 323e 155c 373e 75b2 4a3e 91cf 6a3e
000003e0: a0ef 863e 1154 aa3e 9d7a b63e 4914 cd3e
000003f0: bdb2 eb3e b57d 053f fc14 293f 3af6 5a3f

transformer.h.2.attn.c_attn f4 [65]
7.067219e-08 0.0022841718 0.036913913 0.045810662 0.05602214 0.06406849 0.07810667 0.0894202
0.106442206 0.1090888 0.12886071 0.13962601 0.14666 0.16065456 0.17008875 0.20321774
0.21729095 0.22926204 0.2604499 0.28280386 0.29502693 0.31393003 0.3273101 0.35174015
0.37715024 0.40304273 0.42308155 0.42938513 0.47135714 0.48813957 0.51077676 0.52256817
0.53380924 0.5775307 0.59129447 0.60478777 0.62367445 0.66029626 0.7025377 0.72882146
0.7316595 0.77882487 0.82933986 0.8571419 0.8891007 0.929505 0.9408856 1.0537086
1.0826447 1.1451542 1.2334738 1.2545254 1.3526195 1.4448783 1.6023644 1.6646785
1.761974 2.0531926 2.4245253 2.580869 3.0339282 3.5770264 6.6589465 13.527607
33.68724
00000000: 73c4 9733 0bb2 153b 0b33 173d f6a3 3b3d
00000010: 7977 653d 5736 833d 64f6 9f3d f021 b73d
00000020: 5ffe d93d f369 df3d 10f4 033e 1ffa 0e3e
00000030: 0a2e 163e a182 243e bf2b 2e3e 5018 503e
00000040: 8581 5e3e abc3 6a3e b059 853e abcb 903e
00000050: c50d 973e 70bb a03e 3095 a73e 4917 b43e
00000060: d619 c13e 9e5b ce3e 259e d83e 5ed8 db3e
00000070: b955 f13e 6eed f93e 44c2 023f 07c7 053f
00000080: b9a7 083f 0dd9 133f 135f 173f 5fd3 1a3f
00000090: 21a9 1f3f 2d09 293f 83d9 333f 0b94 3a3f
000000a0: 094e 3b3f 1161 473f 9e4f 543f a76d 5b3f
000000b0: 1a9c 633f 0af4 6d3f e1dd 703f ecdf 863f
000000c0: 1a94 8a3f 6a94 923f 78e2 9d3f 4a94 a03f
000000d0: a322 ad3f c6f1 b83f 471a cd3f 2f14 d53f
000000e0: 5d88 e13f 8267 0340 6c2b 1b40 f52c 2540
000000f0: e12b 4240 00ee 6440 1716 d540 1471 5841
00000100: bcbf 0642

transformer.h.2.attn.c_proj f4 [65]
0.0011722993 0.0020909733 0.002676593 0.0029491594 0.0031095347 0.0032803186 0.0036725104 0.00395766
0.0040011904 0.0040549883 0.004756854 0.0048928214 0.005011115 0.005484456 0.0058649024 0.0062515824
0.006606823 0.00692644 0.007065772 0.007315217 0.007553535 0.007725852 0.007788756 0.008672007
0.008896698 0.008999531 0.009090594 0.009619117 0.009844915 0.010490139 0.010704769 0.010845996
0.01207677 0.012896399 0.013027746 0.013681317 0.01386025 0.014101186 0.015895503 0.016065752
0.017011302 0.018003363 0.01819915 0.019127509 0.020507235 0.021214528 0.022224069 0.023265092
0.023813566 0.026568163 0.026989229 0.028716972 0.029802658 0.032492705 0.03311301 0.037509166
0.040103637 0.044376723 0.045933563 0.04995293 0.05519494 0.06888825 0.084897384 0.11982026
1.293141
00000000: d6a7 993a b608 093b c769 2f3b af46 413b
00000010: 56c9 4b3b 9dfa 563b 80ae 703b 42af 813b
00000020: 6b1c 833b b5df 843b 62df 9b3b f653 a03b
00000030: 4834 a43b f4b6 b33b 5e2e c03b 13da cc3b
00000040: 0c7e d83b 31f7 e23b fe87 e73b 7db4 ef3b
00000050: a583 f73b 2529 fd3b d238 ff3b 0915 0e3c
00000060: 75c3 113c c572 133c b7f0 143c 8099 1d3c
00000070: 914c 213c d5de 2b3c 0e63 2f3c 68b3 313c
00000080: a5dd 453c 6b4b 533c 5472 553c 9a27 603c
00000090: 1a16 633c a908 673c 4937 823c 539c 833c
000000a0: 495b 8b3c ca7b 933c 6216 953c 4bb1 9c3c
000000b0: cafe a73c 17ca ad3c 400f b63c 6f96 be3c
000000c0: ab14 c33c 7aa5 d93c 8418 dd3c db3f eb3c
000000d0: b424 f43c 1217 053d 82a1 073d 36a3 193d
000000e0: b643 243d 5ec4 353d d524 3c3d 729b 4c3d
000000f0: 1714 623d 4815 8d3d aede ad3d 5364 f53d
00000100: a585 a53f

transformer.h.2.mlp.c_fc f4 [65]
3.507365e-07 0.003384212 0.10623525 0.11433616 0.13499297 0.1519228 0.16375627 0.18837065
0.18912631 0.20639873 0.23258203 0.23904738 0.24536732 0.2701372 0.27988183 0.29790556
0.3198939 0.32101363 0.34856963 0.38258532 0.41574085 0.4362291 0.45666823 0.49130824
0.50562286 0.5387952 0.57364494 0.591561 0.6123051 0.66553265 0.6696135 0.69863564
0.7062174 0.74101865 0.76713425 0.7810139 0.8262156 0.85877496 0.8835456 0.93133223
0.9983456 1.0401942 1.0621964 1.1329677 1.2099271 1.2274022 1.2765789 1.364619
1.4410601 1.4822595 1.5769054 1.671661 1.7826924 1.8239912 2.0759966 2.1427076
2.2617228 2.6629305 3.3651254 3.6318157 4.205057 4.441206 7.9726424 9.910589
30.074373
00000000: dc4c bc34 a8c9 5d3b de91 d93d 1429 ea3d
00000010: 993b 0a3e a791 1b3e b9af 273e 3ce4 403e
00000020: 54aa 413e 305a 533e fc29 6e3e d6c8 743e
00000030: 9241 7b3e 6c4f 8a3e ac4c 8f3e 1487 983e
00000040: 22c9 a33e e65b a43e b877 b23e 39e2 c33e
00000050: fcdb d43e 6c59 df3e 6bd0 e93e c18c fb3e
00000060: 8070 013f 7bee 093f 65da 123f 8b70 173f
00000070: 07c0 1c3f 5960 2a3f ca6b 2b3f c9d9 323f
00000080: aaca 343f 66b3 3d3f e962 443f 87f0 473f
00000090: de82 533f add8 5b3f 0b30 623f ca6b 6e3f
000000a0: 9493 7f3f 1525 853f 0df6 873f 1605 913f
000000b0: e4de 9a3f 841b 9d3f f066 a33f d6ab ae3f
000000c0: a874 b83f aeba bd3f 09d8 c93f fdf8 d53f
000000d0: 442f e43f 8b78 e93f 21dd 0440 1f22 0940
000000e0: 11c0 1040 746d 2a40 375e 5740 ab6f 6840
000000f0: d48f 8640 5c1e 8e40 e31f ff40 c691 1e41
00000100: 5198 f041

transformer.h.2.mlp.c_proj f4 [257]
0.00028592223 0.0003734911 0.0006447993 0.000861368 0.0010578703 0.0010803501 0.0011168028 0.0011476026
0.0011706771 0.0012120213 0.0012302721 0.0013060885 0.0013148497 0.0013400798 0.0013573741 0.0013936067
0.0014333081 0.0014470408 0.0014526488 0.0014822937 0.0014863003 0.0015198987 0.0015371823 0.0015683671
0.0015880676 0.0016211368 0.0016453852 0.0016737131 0.0017169394 0.0017210711 0.0017451544 0.00174916
0.0017633276 0.0017869978 0.0018074125 0.0018158682 0.0018486507 0.0018865801 0.0019034413 0.001921891
0.0019821024 0.0019835476 0.0020194892 0.002022881 0.0020611165 0.002072737 0.0021050514 0.002132469
0.0021839954 0.002194792 0.0022019984 0.002231322 0.0022507673 0.0022674708 0.0022922982 0.002315816
0.0023305272 0.0023806319 0.0024157534 0.002453469 0.002473166 0.0025226774 0.0025723428 0.002574675
0.0026304547 0.0026701146 0.0026968326 0.002729168 0.0027450717 0.0027695664 0.0028328362 0.0028382933
0.0028760438 0.0028873216 0.0029076736 0.0029676494 0.0029752927 0.003006901 0.0030587614 0.0030759382
0.0030998995 0.0031432912 0.0032010581 0.0032421867 0.0032694205 0.003304645 0.0033622375 0.0034013637
0.00344168 0.0034809776 0.0035236496 0.003574694 0.0036268742 0.0036449507 0.0036831736 0.0037214307
0.003778239 0.0038248012 0.0038775008 0.003913017 0.003989994 0.004039487 0.004085208 0.004130851
0.0041862433 0.0042237383 0.004274918 0.004330534 0.0044185203 0.004465195 0.004579106 0.0046079415
0.00464496 0.0047113295 0.004733548 0.004752933 0.004901688 0.004948702 0.0050015096 0.0050584567
0.0051297513 0.0051817014 0.0052922363 0.005327059 0.0053633084 0.005452501 0.005521509 0.0055488385
0.00557104 0.0056930855 0.005758774 0.0058238106 0.005841384 0.0059552277 0.0060321996 0.006126853
0.0061705103 0.00628692 0.006333919 0.0063746823 0.0065271147 0.0066159726 0.0066561913 0.0067409268
0.006779652 0.0068385587 0.006949015 0.007039332 0.007258309 0.0074036564 0.0074557164 0.0076300516
0.0077218725 0.0077269543 0.007867524 0.00802255 0.008110422 0.008385628 0.008433997 0.008647685
0.008923341 0.008967216 0.009066965 0.009156134 0.009312652 0.009632104 0.009736068 0.009741659
0.009955455 0.010153349 0.010407896 0.010548993 0.010637122 0.010865492 0.010937592 0.0111276265
0.011561301 0.011685711 0.011933251 0.012092617 0.012270252 0.012439409 0.012760555 0.01291735
0.013081899 0.0132701555 0.013517266 0.013946635 0.014425063 0.014775038 0.014814403 0.015423677
0.015659967 0.01598785 0.016291095 0.016866053 0.017310329 0.01776003 0.018037766 0.018259162
0.018693319 0.019714339 0.020062933 0.020608785 0.021248339 0.021758057 0.022427524 0.022580959
0.023169799 0.023744587 0.024236564 0.025711637 0.025968947 0.026583645 0.027493885 0.028317772
0.028830225 0.029872475 0.030790906 0.03171454 0.032465037 0.03503833 0.03653957 0.037445817
0.037915375 0.04116111 0.042620778 0.042717498 0.045345247 0.04706935 0.049153004 0.0499962
0.05115198 0.053080156 0.058161218 0.060947504 0.062688366 0.06954588 0.070518866 0.0742323
0.076589525 0.08190223 0.08437977 0.08674158 0.099773206 0.106581435 0.1156285 0.12961075
0.13887738 0.14247848 0.1657499 0.1702883 0.19022942 0.2415681 0.349837 0.38305116
00000000: d5e7 9539 20d1 c339 c007 293a 6ecd 613a
00000010: 3da8 8a3a 899a 8d3a af61 923a 276b 963a
00000020: 6871 993a b0dc 9e3a 1541 a13a 0f31 ab3a
00000030: 0957 ac3a 9ea5 af3a ebe9 b13a aea9 b63a
00000040: d7dd bb3a a2aa bd3a ce66 be3a 8649 c23a
00000050: f6cf c23a 5637 c73a 477b c93a ab91 cd3a
00000060: b526 d03a 537c d43a f7a9 d73a 7e60 db3a
00000070: ed0a e13a 9095 e13a aabd e43a 1244 e53a
00000080: 751f e73a b239 ea3a b3e6 ec3a 6d02 ee3a
00000090: 6d4e f23a 2047 f73a e47c f93a f6e7 fb3a
000000a0: 29e6 013b 68fe 013b 6859 043b 5092 043b
000000b0: cc13 073b c2d6 073b e7f4 093b e5c0 0b3b
000000c0: 5d21 0f3b 80d6 0f3b 674f 103b 5f3b 123b
000000d0: 9c81 133b d999 143b 623a 163b f2c4 173b
000000e0: c2bb 183b 6004 1c3b 9e51 1e3b 61ca 203b
000000f0: d714 223b 8153 253b c094 283b e1bb 283b
00000100: b563 2c3b 17fd 2e3b 58bd 303b d7db 323b
00000110: a9e6 333b 9d81 353b 1ba7 393b a902 3a3b
00000120: 027c 3c3b 3839 3d3b ab8e 3e3b e57c 423b
00000130: 21fd 423b 6d0f 453b 8075 483b ae95 493b
00000140: af27 4b3b adff 4d3b d8c8 513b de7a 543b
00000150: c643 563b be92 583b fc58 5c3b 6ae9 5e3b
00000160: cf8d 613b 1d21 643b 08ed 663b 6a45 6a3b
00000170: dab0 6d3b 20e0 6e3b 6661 713b 3fe3 733b
00000180: 559c 773b 84a9 7a3b ab1d 7e3b c438 803b
00000190: 7fbe 823b ac5d 843b 35dd 853b 175c 873b
000001a0: c12c 893b 4967 8a3b 9d14 8c3b 27e7 8d3b
000001b0: 3cc9 903b c550 923b 530c 963b 37fe 963b
000001c0: c034 983b 7f61 9a3b e11b 9b3b 7ebe 9b3b
000001d0: 579e a03b b928 a23b b4e3 a33b 69c1 a53b
000001e0: 7917 a83b 43cb a93b 7f6a ad3b 9c8e ae3b
000001f0: b1be af3b e5aa b23b c6ed b43b 08d3 b53b
00000200: 458d b63b 108d ba3b 19b4 bc3b aad5 be3b
00000210: 1569 bf3b 1224 c33b c2a9 c53b c5c3 c83b
00000220: fe31 ca3b 8202 ce3b c38c cf3b b6e2 d03b
00000230: 68e1 d53b cdca d83b 2e1c da3b fee2 dc3b
00000240: d827 de3b fd15 e03b 90b4 e33b 32aa e63b
00000250: 1cd7 ed3b 5f9a f23b 154f f43b 8305 fa3b
00000260: c307 fd3b 6432 fd3b cae6 003c 0371 033c
00000270: 93e1 043c e063 093c bf2e 0a3c 05af 0d3c
00000280: 3433 123c 3beb 123c 9c8d 143c 9c03 163c
00000290: 1894 183c f9cf 1d3c 0784 1f3c 7b9b 1f3c
000002a0: 341c 233c 3b5a 263c e185 2a3c afd5 2c3c
000002b0: 5347 2e3c 2d05 323c 9633 333c a650 363c
000002c0: 9c6b 3d3c 6d75 3f3c af83 433c 1d20 463c
000002d0: 2b09 493c aace 4b3c a611 513c 4ba3 533c
000002e0: 7655 563c 116b 593c 8677 5d3c 6d80 643c
000002f0: 1957 6c3c 0013 723c 1cb8 723c 97b3 7c3c
00000300: 5549 803c f4f8 823c e774 853c ad2a 8a3c
00000310: 64ce 8d3c 7c7d 913c f0c3 933c 3d94 953c
00000320: bb22 993c f77f a13c 055b a43c c1d3 a83c
00000330: ff10 ae3c f43d b23c edb9 b73c b4fb b83c
00000340: 97ce bd3c 0284 c23c c28b c63c 36a1 d23c
00000350: d4bc d43c f2c5 d93c db3a e13c acfa e73c
00000360: 5d2d ec3c 1fb7 f43c 363d fc3c 1be7 013d
00000370: 0ffa 043d 5a84 0f3d 84aa 153d c960 193d
00000380: 274d 1b3d 8d98 283d 2093 2e3d 8bf8 2e3d
00000390: f0bb 393d cacb 403d a954 493d d1c8 4c3d
000003a0: bd84 513d 946a 593d 753a 6e3d 17a4 793d
000003b0: c262 803d 126e 8e3d 326c 903d 1b07 983d
000003c0: f8da 9c3d 5bbc a73d 4dcf ac3d 92a5 b13d
000003d0: e555 cc3d 5e47 da3d a3ce ec3d aeb8 043e
000003e0: df35 0e3e e1e5 113e 57ba 293e 0e60 2e3e
000003f0: 80cb 423e a15d 773e d61d b33e 481f c43e

transformer.h.3.attn.c_attn f4 [65]
-4.4873593e-07 0.0025364957 0.07093285 0.08151579 0.09465634 0.105323166 0.12225551 0.1243722
0.13671592 0.14293234 0.1519167 0.16665205 0.1906203 0.19890885 0.21086092 0.22710438
0.24086455 0.2639074 0.28891587 0.30876324 0.3289636 0.33717266 0.37407517 0.3746123
0.39244494 0.43654805 0.45457634 0.47146443 0.5061689 0.52878714 0.55942655 0.5708222
0.59902096 0.6202595 0.6413025 0.6515595 0.694535 0.7508396 0.78806674 0.8027264
0.8341548 0.8877055 0.90441 0.9119345 0.9996406 1.0348823 1.0713922 1.1507366
1.3301216 1.3579193 1.4167014 1.5199493 1.5491285 1.652073 1.8884805 1.9460814
2.0599086 2.3151882 2.8746824 3.1060083 3.4793694 4.1125255 7.493164 19.07748
37.03276
00000000: cce9 f0b4 563b 263b 3e45 913d c0f1 a63d
00000010: 2fdb c13d acb3 d73d 1961 fa3d dab6 fe3d
00000020: 42ff 0b3e db5c 123e 0d90 1b3e d6a6 2a3e
00000030: f831 433e c3ae 4b3e edeb 573e 0d8e 683e
00000040: 32a5 763e df1e 873e c8ec 933e 3716 9e3e
00000050: eb6d a83e e5a1 ac3e c886 bf3e 2fcd bf3e
00000060: 8bee c83e 3a83 df3e 3bbe e83e c963 f13e
00000070: 4994 013f 985e 073f 9436 0f3f 6721 123f
00000080: 7059 193f 54c9 1e3f 672c 243f 9acc 263f
00000090: 0ccd 313f 0637 403f bebe 493f 7a7f 4d3f
000000a0: 2b8b 553f ab40 633f 6a87 673f 8a74 693f
000000b0: 72e8 7f3f 0677 843f 6123 893f 564b 933f
000000c0: 6d41 aa3f 4dd0 ad3f 7956 b53f b38d c23f
000000d0: d849 c63f 2177 d33f bbb9 f13f 3219 f93f
000000e0: 8bd5 0340 0b2c 1440 ccfa 3740 d7c8 4640
000000f0: fdad 5e40 cf99 8340 00c8 ef40 ae9e 9841
00000100: 8c21 1442

transformer.h.3.attn.c_proj f4 [65]
0.0015021022 0.002639747 0.0030491482 0.0040329606 0.005167869 0.0056542843 0.0059436425 0.0061732903
0.006608196 0.0070774714 0.007466931 0.007649679 0.007874045 0.008275127 0.008492699 0.008633278
0.009090881 0.009485772 0.009528061 0.009875088 0.010316616 0.01075238 0.011043086 0.011734288
0.012626358 0.012754411 0.01339689 0.013648593 0.0139505565 0.014485315 0.014717478 0.015252581
0.016906884 0.017462874 0.01783005 0.018421106 0.020036383 0.020258099 0.021554606 0.021601662
0.023406098 0.024736043 0.025743023 0.026106432 0.027305216 0.029942865 0.030703641 0.03164994
0.032844756 0.036351338 0.037458256 0.038022816 0.039999124 0.041998036 0.046557866 0.04783127
0.0488155 0.056966778 0.06005467 0.063832 0.07460564 0.08559037 0.08779793 0.12522414
1.2298679
00000000: 30e2 c43a 9bff 2c3b 38d4 473b ed26 843b
00000010: 3a57 a93b 9347 b93b e3c2 c23b 5049 ca3b
00000020: 9189 d83b 22ea e73b 28ad f43b 29aa fa3b
00000030: 2302 013c 6694 073c f624 0b3c 9872 0d3c
00000040: ebf1 143c 366a 1b3c 961b 1c3c 1fcb 213c
00000050: 0607 293c c02a 303c 0fee 343c 2c41 403c
00000060: c9de 4e3c e1f7 503c a17e 5b3c 599e 5f3c
00000070: e090 643c d153 6d3c 9421 713c f6e5 793c
00000080: 4e80 8a3c 4d0e 8f3c 5310 923c dce7 963c
00000090: 5723 a43c 50f4 a53c 4993 b03c f8f5 b03c
000000a0: 25be bf3c 3ea3 ca3c 08e3 d23c 28dd d53c
000000b0: 30af df3c bd4a f53c 3486 fb3c 5ea3 013d
000000c0: 3988 063d 24e5 143d d46d 193d d0bd 1b3d
000000d0: 1fd6 233d 2206 2c3d 76b3 3e3d b9ea 433d
000000e0: c3f2 473d ff55 693d e3fb 753d 5aba 823d
000000f0: d7ca 983d 014a af3d 67cf b33d c23a 003e
00000100: 506c 9d3f

transformer.h.3.mlp.c_fc f4 [65]
7.3616224e-07 0.0033982028 0.15891281 0.17424054 0.19952098 0.2231065 0.22954102 0.24056448
0.24936578 0.2690279 0.27970815 0.30144203 0.32172784 0.3356251 0.35986733 0.38132507
0.38515338 0.39868706 0.40638262 0.42332816 0.44518337 0.4833026 0.50820446 0.5417388
0.5855263 0.59183854 0.6127356 0.63566977 0.6676357 0.71753323 0.73523074 0.7518023
0.7908479 0.8021846 0.8377779 0.8867542 0.9320581 0.94321966 0.98973626 1.0240476
1.1272036 1.1336395 1.156003 1.2251822 1.3565832 1.3790916 1.3925606 1.5504142
1.568728 1.6954483 1.7840492 1.9436463 1.9749913 2.1462035 2.3330662 2.507594
2.5638611 2.98567 4.065336 4.152809 4.5958347 5.0041842 8.896434 10.498537
34.596413
00000000: af9c 4535 62b4 5e3b 0aba 223e 1d6c 323e
00000010: 3a4f 4c3e 0876 643e cd0c 6b3e 8956 763e
00000020: be59 7f3e 06be 893e e835 8f3e 9c56 9a3e
00000030: 83b9 a43e 0ed7 ab3e 8840 b83e 0a3d c33e
00000040: d332 c53e b620 cc3e 6211 d03e 78be d83e
00000050: 13ef e33e 7073 f73e b019 023f 65af 0a3f
00000060: 0de5 153f bb82 173f 3edc 1c3f 41bb 223f
00000070: 2cea 2a3f 42b0 373f 1538 3c3f 1e76 403f
00000080: 0275 4a3f f85b 4d3f 9d78 563f 5302 633f
00000090: 5c9b 6e3f d876 713f 5b5f 7d3f fe13 833f
000000a0: 3548 903f 191b 913f e8f7 933f c5d2 9c3f
000000b0: 85a4 ad3f 1386 b03f 6d3f b23f f973 c63f
000000c0: 14cc c83f 7304 d93f b95b e43f 67c9 f83f
000000d0: 84cc fc3f 665b 0940 f550 1540 6c7c 2040
000000e0: 4d16 2440 3815 3f40 3c17 8240 d0e3 8440
000000f0: 1411 9340 4722 a040 cb57 0e41 02fa 2741
00000100: ba62 0a42

transformer.h.3.mlp.c_proj f4 [257]
0.0006505868 0.0007328285 0.0015490346 0.001707012 0.0017586787 0.0017900901 0.0018473405 0.0018984596
0.0019156471 0.0019364146 0.0019719244 0.002006323 0.0020631165 0.0020728556 0.0021108312 0.0021341066
0.0021528678 0.0022109058 0.0022428613 0.0022738941 0.0022768339 0.002340102 0.0023785455 0.0023917758
0.0024271037 0.0024492461 0.0025101702 0.0025229836 0.002557333 0.002571069 0.0026339376 0.0026598112
0.0026892046 0.002702954 0.0027428032 0.0027781036 0.0027847323 0.002860267 0.0029220048 0.0029369625
0.003010209 0.0030334496 0.003042974 0.0030763713 0.0031203758 0.003130578 0.0031667321 0.0031919833
0.0032022868 0.0032428913 0.0032763246 0.0033129335 0.0033491245 0.0033722597 0.003458389 0.0034708558
0.0035111057 0.0035508187 0.0035868133 0.0036040072 0.003641259 0.0036689779 0.0037113174 0.003786163
0.0038084837 0.003826487 0.003891027 0.0039192503 0.0039593107 0.0040189973 0.00405154 0.004073646
0.0041154707 0.00420566 0.0042340546 0.0042859786 0.0043319995 0.0043882877 0.0044101 0.0044657746
0.0045010895 0.004545888 0.0045856633 0.0046061384 0.004682162 0.0047478927 0.004803195 0.00484338
0.004878353 0.0049451166 0.0049924753 0.005015511 0.005086962 0.005108758 0.0051806495 0.0052844854
0.0053358125 0.0053827227 0.0054323026 0.005486489 0.0055740327 0.0056414204 0.0057579153 0.0058094207
0.0058524148 0.005924212 0.0059616445 0.006005504 0.006040593 0.0061181164 0.0062218416 0.0062528974
0.0063432944 0.0064574117 0.00648418 0.0065463227 0.006672272 0.006847087 0.006875155 0.006964463
0.006994509 0.007034796 0.0071390197 0.0071600466 0.0073116105 0.0074256826 0.0074518137 0.0076198354
0.007670826 0.007748762 0.007835353 0.007862127 0.007948332 0.007964766 0.008187053 0.008268024
0.008371255 0.0084988745 0.008641668 0.008771671 0.008889204 0.009017115 0.009083211 0.0092054615
0.009328453 0.009389766 0.009448312 0.009640903 0.009666382 0.009799497 0.009906356 0.0099851815
0.010144678 0.010212164 0.010424428 0.0105894795 0.010731151 0.010767017 0.011106068 0.011150792
0.011379817 0.011642144 0.011844138 0.012064243 0.012182375 0.012467337 0.0125242965 0.012568007
0.012925584 0.013082764 0.01342595 0.013548701 0.013593835 0.013918072 0.014047202 0.014326864
0.01445592 0.014736567 0.015247594 0.015284346 0.015571683 0.015935346 0.016187545 0.016449153
0.016636446 0.01700222 0.01709989 0.017411983 0.017528454 0.018156353 0.018342031 0.018781964
0.019435078 0.019631403 0.020105053 0.020657131 0.020733511 0.02130848 0.021577248 0.021692747
0.022677496 0.022846479 0.023773396 0.024122538 0.0245738 0.024830872 0.025255417 0.026222743
0.0266742 0.02708291 0.0290413 0.029760858 0.029904548 0.03112503 0.03199594 0.033161018
0.03350343 0.034602087 0.0359531 0.037423328 0.037937745 0.038341284 0.039749693 0.039975233
0.040374942 0.042720515 0.04478609 0.04750082 0.049068905 0.050695017 0.052290775 0.053178906
0.057289854 0.060372427 0.06083003 0.063671395 0.0696438 0.07081645 0.07511396 0.08061576
0.083716616 0.08816049 0.095212825 0.09706449 0.10412843 0.106578246 0.1096978 0.11735359
0.12805715 0.1417848 0.14750728 0.17521773 0.20670679 0.2244044 0.27876872 0.4115556
00000000: 248c 2a3a 4a1b 403a fa08 cb3a d1bd df3a
00000010: 7783 e63a 75a1 ea3a 7622 f23a bcd5 f83a
00000020: 7316 fb3a 4bcf fd3a 673b 013b 847c 033b
00000030: 5a35 073b bfd8 073b df55 0a3b 5edc 0b3b
00000040: 2117 0d3b d8e4 103b f8fc 123b 9d05 153b
00000050: ef36 153b 665c 193b 5fe1 1b3b 57bf 1c3b
00000060: 0b10 1f3b 8883 203b ab81 243b a458 253b
00000070: ee98 273b 617f 283b 249e 2c3b 3a50 2e3b
00000080: 5e3d 303b 0b24 313b 9ac0 333b d810 363b
00000090: 0e80 363b 5173 3b3b 1b7f 3f3b 0e7a 403b
000000a0: ed46 453b d7cc 463b a26c 473b f29c 493b
000000b0: 387f 4c3b 622a 4d3b f388 4f3b 9830 513b
000000c0: 75dd 513b b086 543b 9bb7 563b cd1d 593b
000000d0: fc7c 5b3b 2101 5d3b 24a6 623b 4c77 633b
000000e0: 941a 663b dab4 683b be10 6b3b 3531 6c3b
000000f0: 30a2 6e3b 3c73 703b 9339 733b 4621 783b
00000100: c197 793b cdc5 7a3b 9a00 7f3b 0e6d 803b
00000110: 1bbd 813b cbb1 833b c8c2 843b 387c 853b
00000120: 12db 863b a2cf 893b d3bd 8a3b 6571 8c3b
00000130: 72f3 8d3b a0cb 8f3b 9a82 903b a255 923b
00000140: e07d 933b acf5 943b 5543 963b 17ef 963b
00000150: d26c 993b 3694 9b3b 1f64 9d3b 37b5 9e3b
00000160: 97da 9f3b a50a a23b eb97 a33b 2859 a43b
00000170: 88b0 a63b 5e67 a73b 70c2 a93b 7a29 ad3b
00000180: 0ad8 ae3b 8d61 b03b 7501 b23b 01c8 b33b
00000190: 60a6 b63b aadb b83b e5ac bc3b f45c be3b
000001a0: 9dc5 bf3b e41f c23b e659 c33b d2c9 c43b
000001b0: 2bf0 c53b 7b7a c83b 97e0 cb3b 1be5 cc3b
000001c0: 69db cf3b b298 d33b 3f79 d43b 8982 d63b
000001d0: 13a3 da3b 875d e03b fb48 e13b 2636 e43b
000001e0: 3232 e53b 2584 e63b 70ee e93b d39e ea3b
000001f0: 3c96 ef3b 2453 f33b 582e f43b d0af f93b
00000200: 8d5b fb3b 54e9 fd3b da5f 003c 27d0 003c
00000210: b839 023c a67e 023c fd22 063c 9b76 073c
00000220: 9727 093c dd3e 0b3c c895 0d3c 0eb7 0f3c
00000230: 06a4 113c 86bc 133c c0d1 143c 81d2 163c
00000240: 5ed6 183c 88d7 193c 18cd 1a3c e1f4 1d3c
00000250: bf5f 1e3c 128e 203c 454e 223c e398 233c
00000260: dd35 263c ec50 273c 38cb 2a3c 7f7f 2d3c
00000270: b6d1 2f3c 2468 303c 3af6 353c d0b1 363c
00000280: 6972 3a3c b1be 3e3c ea0d 423c 1aa9 453c
00000290: 9698 473c cd43 4c3c b532 4d3c 0bea 4d3c
000002a0: d4c5 533c 1759 563c 84f8 5b3c 5ffb 5d3c
000002b0: adb8 5e3c a008 643c 3c26 663c 39bb 6a3c
000002c0: 86d8 6c3c a471 713c 0bd1 793c 326b 7a3c
000002d0: 5f20 7f3c d88a 823c be9b 843c 60c0 863c
000002e0: 2849 883c 3d48 8b3c 1215 8c3c 93a3 8e3c
000002f0: d597 8f3c a2bc 943c 0742 963c a2dc 993c
00000300: 5036 9f3c 09d2 a03c 5ab3 a43c 2539 a93c
00000310: 53d9 a93c 1f8f ae3c c5c2 b03c fdb4 b13c
00000320: 28c6 b93c 8a28 bb3c 6dc0 c23c a19c c53c
00000330: fe4e c93c 1d6a cb3c 73e4 ce3c 14d1 d63c
00000340: da83 da3c fbdc dd3c 05e8 ed3c 0bcd f33c
00000350: 62fa f43c ebf9 fe3c 2d0e 033d d9d3 073d
00000360: e53a 093d ebba 0d3d 8f43 133d 3449 193d
00000370: 9c64 1b3d c00b 1d3d 93d0 223d 12bd 233d
00000380: 3260 253d b5fb 2e3d 9e71 373d 3890 423d
00000390: 7afc 483d 94a5 4f3d da2e 563d 20d2 593d
000003a0: c4a8 6a3d 1449 773d e928 793d 2666 823d
000003b0: 69a1 8e3d 3708 913d 59d5 993d e019 a53d
000003c0: 9e73 ab3d 7d8d b43d f1fe c23d bfc9 c63d
000003d0: 4941 d53d b245 da3d 3da9 e03d 1457 f03d
000003e0: 6a21 033e 0930 113e 260c 173e 476c 333e
000003f0: f2aa 533e 44ca 653e c6ba 8e3e 6ab7 d23e

transformer.h.4.attn.c_attn f4 [65]
1.3968773e-06 0.0031739045 0.13152018 0.13368686 0.13757612 0.15064535 0.16024792 0.17346725
0.18294019 0.19083543 0.20315349 0.21230716 0.23214728 0.2413314 0.2502248 0.2638601
0.2805214 0.30371025 0.31135616 0.3226574 0.33471307 0.3675558 0.3749183 0.39644805
0.41139084 0.4256613 0.43926978 0.45811728 0.5006852 0.5118618 0.52640957 0.55329895
0.5748767 0.6095615 0.639872 0.654515 0.69007087 0.71297836 0.7307539 0.7975453
0.80906904 0.86335313 0.9207023 0.95337355 1.0150574 1.0318264 1.0645902 1.1302013
1.2831434 1.2990938 1.4212623 1.479166 1.5747162 1.6345174 1.8112154 1.8435993
2.0326817 2.1458795 2.9174144 2.9888554 3.3377504 4.115678 7.1527796 17.75635
32.457973
00000000: 577c bb35 4801 503b 3aad 063e 35e5 083e
00000010: c1e0 0c3e c642 1a3e 0818 243e 66a1 313e
00000020: ac54 3b3e 5d6a 433e 7807 503e 0c67 593e
00000030: 04b8 6d3e 941f 773e 771d 803e ac18 873e
00000040: 80a0 8f3e e97f 9b3e 136a 9f3e 5a33 a53e
00000050: 835f ab3e 4630 bc3e 4bf5 bf3e 3dfb ca3e
00000060: d2a1 d23e 47f0 d93e f8e7 e03e 598e ea3e
00000070: e82c 003f 6009 033f c7c2 063f 00a5 0d3f
00000080: 1f2b 133f 390c 1c3f a7ce 233f 4c8e 273f
00000090: 7ca8 303f c085 363f b012 3b3f ee2b 4c3f
000000a0: 261f 4f3f b604 5d3f 25b3 6b3f 4a10 743f
000000b0: 67ed 813f e312 843f 7e44 883f 70aa 903f
000000c0: 0b3e a43f b548 a63f eceb b53f 5055 bd3f
000000d0: 4d90 c93f de37 d13f e8d5 e73f 10fb eb3f
000000e0: 7517 0240 1756 0940 ebb6 3a40 6849 3f40
000000f0: b49d 5540 a2b3 8340 92e3 e440 010d 8e41
00000100: f7d4 0142

transformer.h.4.attn.c_proj f4 [65]
0.0019098673 0.003292081 0.0033956286 0.0041245683 0.0048117694 0.005305412 0.005823547 0.006423214
0.0067488085 0.0073893084 0.008521978 0.008645652 0.009039018 0.0092615485 0.009557017 0.009892005
0.010437266 0.0108852545 0.011405799 0.011768485 0.011920866 0.012014857 0.0127089415 0.01313711
0.013648511 0.013939955 0.014378926 0.014954263 0.01562787 0.016232723 0.016645223 0.017202651
0.017594537 0.018110255 0.019357814 0.02116504 0.021382876 0.021878889 0.023101622 0.023548497
0.025203489 0.025691018 0.026115594 0.02705916 0.028921103 0.029895103 0.031828895 0.032347575
0.034096856 0.03548353 0.03813872 0.04053317 0.04208083 0.04542244 0.04839241 0.050279252
0.051286314 0.054033104 0.05707998 0.060161643 0.06177331 0.06970732 0.083563276 0.10142462
1.224112
00000000: 8354 fa3a f4bf 573b 3289 5e3b 6327 873b
00000010: 0cac 9d3b 06d9 ad3b 74d3 be3b d379 d23b
00000020: 1c25 dd3b 0322 f23b c49f 0b3c 7ea6 0d3c
00000030: 6418 143c c0bd 173c 0995 1c3c 1312 223c
00000040: 1101 2b3c 1158 323c 63df 3a3c 9bd0 403c
00000050: bc4f 433c f6d9 443c 2a39 503c 083d 573c
00000060: 019e 5f3c 6964 643c 9695 6b3c ba02 753c
00000070: 0506 803c 7dfa 843c 905b 883c 93ec 8c3c
00000080: 6b22 903c f55b 943c 4794 9e3c 4e62 ad3c
00000090: 242b af3c 5b3b b33c 9d3f bd3c c7e8 c03c
000000a0: 8c77 ce3c f875 d23c 5ff0 d53c 2cab dd3c
000000b0: f3eb ec3c 93e6 f43c 045f 023d e47e 043d
000000c0: 25a9 0b3d 2e57 113d 5937 1c3d 1c06 263d
000000d0: f35c 2c3d e10c 3a3d 1f37 463d 9ef1 4d3d
000000e0: 9911 523d d151 5d3d b2cc 693d 0e6c 763d
000000f0: 0306 7d3d b6c2 8e3d 3923 ab3d b6b7 cf3d
00000100: b4af 9c3f

transformer.h.4.mlp.c_fc f4 [65]
2.2870451e-07 0.0037800113 0.19206575 0.20601034 0.25304377 0.2796953 0.28310958 0.28912246
0.30082121 0.3362223 0.34582144 0.35263032 0.36862248 0.3832741 0.39098358 0.4237264
0.43254727 0.45012137 0.47075862 0.5015534 0.52800584 0.5353983 0.54773086 0.58562005
0.59801394 0.61485785 0.6707024 0.6948942 0.7016331 0.72645897 0.7623911 0.7984695
0.8332791 0.85268074 0.87802255 0.9187934 0.92916036 1.0065651 1.0605932 1.0700679
1.1644166 1.2033122 1.2190702 1.2851417 1.333136 1.4121323 1.5191467 1.6099885
1.6655543 1.7388256 1.8088382 1.9193342 2.1594315 2.1793401 2.459316 2.6636372
2.6943839 2.9771965 4.0170016 4.4181123 4.4505715 5.486291 8.830587 10.734387
34.800274
00000000: d191 7534 11ba 773b e2ac 443e 60f4 523e
00000010: f48e 813e 3934 8f3e bdf3 903e dc07 943e
00000020: 3d05 9a3e 5425 ac3e 820f b13e f68b b43e
00000030: 16bc bc3e 813c c43e 002f c83e abf2 d83e
00000040: d676 dd3e 4f76 e63e 4607 f13e ce65 003f
00000050: 642b 073f dd0f 093f 1738 0c3f 32eb 153f
00000060: 7117 193f 5367 1d3f 27b3 2b3f 96e4 313f
00000070: 3a9e 333f 37f9 393f 102c 433f 7f68 4c3f
00000080: c751 553f 4949 5a3f 16c6 603f 0b36 6b3f
00000090: 74dd 6d3f 20d7 803f 85c1 873f fcf7 883f
000000a0: 9a0b 953f 2206 9a3f 7e0a 9c3f 867f a43f
000000b0: 33a4 aa3f c0c0 b43f 6673 c23f 1a14 ce3f
000000c0: e230 d53f d691 de3f 0388 e73f beac f53f
000000d0: 2034 0a40 4f7a 0b40 6f65 1d40 0879 2a40
000000e0: c970 2c40 638a 3e40 478b 8040 2d61 8d40
000000f0: 156b 8e40 b28f af40 164a 0d41 0dc0 2b41
00000100: 7b33 0b42
