kronfluence-main/examples/tinystories2/influence_results/tinystories/factors_ekfac/gradient_eigenvalues.safetensors (safetensors, 21824 bytes, 32 tensors)

transformer.h.0.attn.c_attn f4 [192]
000000 4d 79 98 38 78 57 9a 38 94 8c a2 38 d5 1a a5 38
       7.270519e-05 7.3595846e-05 7.750947e-05 7.872811e-05
000010 60 50 a6 38 3d a4 b1 38 ae 13 b5 38 28 da cc 38
       7.930468e-05 8.4706095e-05 8.634418e-05 9.768113e-05
000020 b1 05 dd 38 62 50 ea 38 20 f4 ea 38 d2 ae f0 38
       0.00010539161 0.00011172962 0.00011203461 0.000114766546
000030 fc e9 fd 38 d3 db 0a 39 83 24 11 39 a5 b5 14 39
       0.00012107563 0.00013242596 0.00013841879 0.00014182048
000040 47 e5 15 39 f1 65 1e 39 78 c4 20 39 45 28 25 39
       0.0001429516 0.0001510603 0.0001533198 0.00015750628
000050 3d 3c 29 39 1e ad 2e 39 ff 00 3c 39 1b 22 54 39
       0.00016139536 0.00016658424 0.00017929448 0.00020230601
000060 59 fd 5e 39 6c fa 6f 39 2c c4 7b 39 4c a0 80 39
       0.00021265949 0.00022886106 0.00024010305 0.00024533493
000070 02 e9 86 39 34 01 88 39 18 76 8a 39 c8 e3 a4 39
       0.00025732076 0.00025940838 0.00026409398 0.00031450228
000080 26 67 a6 39 6e f6 b3 39 f2 bc bb 39 4e 82 c1 39
       0.0003173884 0.00034325145 0.00035808195 0.00036908913
000090 7a 87 c4 39 40 ae d6 39 2b 55 dc 39 18 88 f2 39
       0.0003748497 0.00040947087 0.00042025125 0.00046259235
0000a0 c1 84 f6 39 46 e5 03 3a 49 02 0d 3a 5a b5 2e 3a
       0.00047019686 0.0005031418 0.00053790637 0.0006664597
0000b0 c4 6e 3e 3a aa c6 4e 3a fe ac 5e 3a 81 86 75 3a
       0.000726443 0.00078878796 0.0008494406 0.0009366051
0000c0 c3 f2 83 3a e8 0c 87 3a 31 fa 92 3a b2 e4 a1 3a
       0.0010066855 0.0010303529 0.0011213479 0.0012351482
0000d0 26 a5 ae 3a 18 d0 af 3a 21 b6 b3 3a 72 f7 b6 3a
       0.0013324365 0.0013413457 0.0013710895 0.0013959242
0000e0 e0 13 be 3a d6 40 cc 3a f1 d4 df 3a 53 61 e5 3a
       0.0014501773 0.0015583287 0.0017077011 0.0017500318
0000f0 58 bd f9 3a bc 9a 01 3b ec 66 06 3b 1a 6e 09 3b
       0.0019053621 0.0019776067 0.0020508124 0.0020970167
000100 9d d3 16 3b cb 26 18 3b 05 e4 1c 3b d2 6d 25 3b
       0.0023014315 0.0023216482 0.0023939621 0.002524246
000110 bf 86 27 3b b0 a5 32 3b 52 28 34 3b 4f 88 3a 3b
       0.0025562493 0.0027259402 0.0027489853 0.0028462594
000120 ec 35 3f 3b 15 41 42 3b b6 c6 49 3b 69 9f 4d 3b
       0.0029176427 0.0029640843 0.0030788607 0.0031375533
000130 7b 1d 55 3b 8a aa 5a 3b 75 43 62 3b 7b 1e 65 3b
       0.0032518792 0.003336581 0.003452507 0.0034960795
000140 a3 b8 68 3b 7f 28 70 3b 4d c3 72 3b 8e 5a 76 3b
       0.0035510443 0.0036645231 0.0037042678 0.0037590596
000150 57 0d 7d 3b 2f f6 83 3b c3 cf 87 3b 1d e6 8e 3b
       0.0038612687 0.00402715 0.00414464 0.0043609277
000160 fd c1 8f 3b 3a 01 91 3b 5d d3 93 3b 2c e8 94 3b
       0.004387139 0.004425195 0.0045112805 0.0045442786
000170 d7 ee 98 3b 55 28 9b 3b 6b 0f a1 3b a1 ea a8 3b
       0.004667144 0.0047350326 0.004915168 0.005154923
000180 41 5d a9 3b b2 50 ab 3b a6 4f af 3b 0b 3e b5 3b
       0.0051685874 0.0052281255 0.005350071 0.0055310777
000190 86 fa b7 3b 54 ec b9 3b 2e 3c bb 3b fb 24 c4 3b
       0.0056145815 0.0056739245 0.005713961 0.0059858537
0001a0 bc bb c8 3b b4 84 ca 3b 41 4b cf 3b a1 f2 d3 3b
       0.0061258953 0.00618037 0.0063261096 0.0064681326
0001b0 66 7f d5 3b 75 c1 dd 3b 11 50 e2 3b 48 a2 e4 3b
       0.006515431 0.0067674466 0.0069065173 0.0069773532
0001c0 f3 8c e7 3b ce 87 f2 3b 45 2e fb 3b 41 13 00 3c
       0.007066363 0.007401443 0.007665428 0.0078170905
0001d0 b3 9c 01 3c 1f 84 05 3c 51 bc 08 3c 4a 90 09 3c
       0.007910895 0.008149176 0.008345679 0.008396218
0001e0 8a 5f 0d 3c 91 09 0f 3c e0 d7 10 3c e1 a6 17 3c
       0.008628735 0.008730308 0.008840531 0.009256096
0001f0 80 51 19 3c 2b 90 1b 3c dd da 24 3c ec 0f 27 3c
       0.00935781 0.009494822 0.010061947 0.010196667
000200 df 0d 2a 3c 71 70 2d 3c 69 22 30 3c bd 99 35 3c
       0.010379284 0.01058589 0.0107503915 0.011084017
000210 cb 2a 3e 3c 05 7e 40 3c 2a dd 4b 3c 5b e1 4d 3c
       0.011606882 0.011748795 0.012442866 0.012565936
000220 d2 6d 52 3c 3d 79 58 3c 5e 25 5d 3c 95 60 64 3c
       0.012843566 0.013212499 0.013497679 0.013939043
000230 2b fa 67 3c 7b c1 6e 3c dd dd 72 3c 68 20 79 3c
       0.014158766 0.0145724965 0.014823404 0.01520548
000240 f5 49 84 3c fd 03 89 3c bd 99 8a 3c e6 14 8e 3c
       0.016148547 0.016725535 0.016919011 0.01734395
000250 2d b3 8f 3c b6 f4 93 3c 92 28 95 3c 8c 0e 96 3c
       0.017541492 0.018061023 0.018207822 0.018317483
000260 2d 83 9d 3c ba 6d 9f 3c c8 26 a2 3c 0e 65 b3 3c
       0.019227589 0.019461501 0.019793883 0.021898773
000270 63 73 b7 3c d4 e7 c2 3c 5b cd c6 3c ce 6e d0 3c
       0.022393888 0.023792185 0.024267843 0.02544346
000280 a3 d6 d2 3c d0 0e db 3c de 70 db 3c f6 66 f2 3c
       0.025737112 0.026740462 0.026787218 0.029590111
000290 ca 65 00 3d 75 f1 06 3d cf 8a 09 3d c3 45 11 3d
       0.031347074 0.032945115 0.033579644 0.03546692
0002a0 de f2 1a 3d ac 1e 20 3d 8f 6b 26 3d 55 fc 2b 3d
       0.037829272 0.03909175 0.04062992 0.04198869
0002b0 ab 2d 37 3d fd 06 4a 3d 4c 8c 4d 3d 45 f5 52 3d
       0.044721287 0.04932307 0.050182626 0.05150344
0002c0 be 65 64 3d 54 8c 6f 3d ea e4 96 3d eb 74 99 3d
       0.05576109 0.058483437 0.07367881 0.074930035
0002d0 4b 6b a3 3d f2 ab b6 3d 19 6b c0 3d 69 43 ce 3d
       0.07979449 0.08919515 0.09395427 0.10071451
0002e0 5f 43 d2 3d 8b a0 d6 3d d1 a9 f6 3d 3b 41 14 3e
       0.10266756 0.1047984 0.12044109 0.14478008
0002f0 27 be 1a 3e ef 07 4f 3e 1d 4a 60 3e 4e 35 1e 3f
       0.151116 0.2021787 0.21903272 0.61800086

transformer.h.0.attn.c_proj f4 [64]
000000 ac ea 3d 36 67 44 6c 3d 84 1b b8 3d bd c6 e4 3d
       2.8299792e-06 0.05768242 0.08989623 0.11170719
000010 37 a6 fd 3d 2f d4 0a 3e fc 5a 0f 3e 3a 1d 2b 3e
       0.123852186 0.13557504 0.13999552 0.16710368
000020 07 5a 37 3e c9 d1 3c 3e e4 b4 41 3e 42 6f 45 3e
       0.17905436 0.18439402 0.1891666 0.19280723
000030 bc 66 54 3e 00 b1 70 3e ef 5b 7e 3e a5 7e 85 3e
       0.20742315 0.2350502 0.24839757 0.26073185
000040 10 23 89 3e 34 98 93 3e 7b b8 96 3e b3 d7 9f 3e
       0.26784563 0.2882706 0.29437622 0.31219253
000050 4f ff ad 3e 88 90 b4 3e 61 f3 c4 3e ca 5b d8 3e
       0.33983847 0.3526652 0.38466933 0.4225753
000060 41 2e f0 3e d6 94 f3 3e f0 88 0b 3f da 6a 1d 3f
       0.4691029 0.4757449 0.54505825 0.6149117
000070 28 14 30 3f 0c 1f 45 3f b7 e7 5a 3f 9a 53 6f 3f
       0.68780756 0.770005 0.8550982 0.9348694
000080 f6 eb 99 3f 9e 6a b5 3f 0f d0 c3 3f 09 ce d5 3f
       1.2025135 1.4173162 1.529787 1.6703502
000090 4f 9e e8 3f 62 a5 f6 3f 30 3b 13 40 d2 ce 1a 40
       1.8173312 1.9269221 2.3004875 2.4188733
0000a0 1d e0 1e 40 b0 18 3a 40 08 71 47 40 0e 4d 58 40
       2.4824288 2.9077568 3.1162739 3.379703
0000b0 d5 0c 68 40 7e 86 7e 40 83 fd a5 40 45 e8 ab 40
       3.6257832 3.9769588 5.1871963 5.372103
0000c0 f1 c3 bc 40 3b 34 d6 40 62 dc 03 41 fb e2 06 41
       5.8989186 6.693876 8.241304 8.430415
0000d0 70 9d 1d 41 e5 53 26 41 69 d6 52 41 43 18 68 41
       9.850937 10.395482 13.177346 14.505923
0000e0 6f 4e 8f 41 f3 19 b7 41 da 4e cf 41 fb 3a 0a 42
       17.913298 22.88767 25.913502 34.5576
0000f0 b8 a4 23 42 92 d4 52 42 c1 29 0a 43 7d a2 15 43
       40.91086 52.70759 138.1631 149.63472

transformer.h.0.mlp.c_fc f4 [256]
000000 a1 a6 8e 3a dc 67 9e 3a e2 c2 b1 3a e7 78 b4 3a
       0.00108834 0.0012085396 0.0013562108 0.0013768942
000010 7a 80 bb 3a a2 08 bd 3a 14 eb bf 3a f5 67 c2 3a
       0.0014305257 0.0014422128 0.0014642202 0.0014832007
000020 af e5 c3 3a 87 7e c5 3a f7 ca c6 3a 2f 4a cc 3a
       0.001494577 0.0015067615 0.0015166689 0.0015586073
000030 6e fd ce 3a c3 0a d1 3a 39 99 d2 3a e3 9e d4 3a
       0.0015792081 0.0015948642 0.0016067392 0.0016221668
000040 ed 2c d6 3a b6 7a d9 3a 1e f0 da 3a 3f 0e e0 3a
       0.0016340293 0.0016592357 0.001670364 0.0017094089
000050 57 b4 e2 3a 37 19 e4 3a 75 eb e5 3a 3d 3d e7 3a
       0.0017296177 0.0017402534 0.0017541485 0.0017642152
000060 75 06 eb 3a 89 44 ed 3a 5b ba ef 3a b0 96 f2 3a
       0.0017931001 0.001810209 0.0018289791 0.0018508043
000070 9a c6 f3 3a 52 f9 f4 3a fe e5 f6 3a 5b 40 fb 3a
       0.0018598617 0.0018690026 0.0018836854 0.001916896
000080 cd 17 fd 3a 7a 21 ff 3a e9 91 ff 3a 01 0a 00 3b
       0.0019309461 0.0019464933 0.0019498441 0.0019537213
000090 72 a1 00 3b 3e f4 01 3b 75 81 02 3b 08 93 04 3b
       0.001962748 0.0019829418 0.0019913588 0.002022924
0000a0 cb d3 04 3b b3 a9 05 3b e1 f0 06 3b 67 47 09 3b
       0.002026784 0.0020395338 0.0020590352 0.00209471
0000b0 12 9b 09 3b ca 6a 0a 3b a3 e6 0b 3b 19 ac 0d 3b
       0.002099697 0.002112078 0.0021347187 0.002161747
0000c0 00 21 0e 3b c0 4b 0f 3b 89 ae 10 3b 9b 13 12 3b
       0.002168715 0.002186522 0.0022076687 0.0022289518
0000d0 53 df 12 3b 99 91 13 3b f6 17 15 3b 6b c5 15 3b
       0.0022410944 0.0022517203 0.0022749878 0.0022853266
0000e0 48 eb 17 3b 98 c8 18 3b 08 71 1a 3b 95 51 1b 3b
       0.002318101 0.0023312923 0.0023565907 0.002369975
0000f0 56 e2 1b 3b 3e f0 1d 3b d7 a9 1f 3b 0e 09 20 3b
       0.002378603 0.0024099494 0.0024362707 0.002441946
000100 7b dd 20 3b 8c a6 21 3b ea 6c 22 3b e9 28 24 3b
       0.0024546075 0.002466592 0.0024784156 0.0025048798
000110 cb ba 26 3b 44 02 27 3b 98 f9 2a 3b 04 1c 2b 3b
       0.0025440927 0.0025483528 0.002608871 0.0026109228
000120 dd af 2b 3b e4 6e 2d 3b a8 e0 2e 3b 50 0d 2f 3b
       0.0026197352 0.00264638 0.0026684199 0.0026710816
000130 c7 0b 31 3b 27 28 32 3b 73 3b 34 3b 86 4c 35 3b
       0.0027015076 0.0027184577 0.0027501255 0.002766402
000140 98 11 37 3b 5b 31 38 3b 23 81 39 3b 71 0b 3b 3b
       0.002793407 0.002810559 0.0028305731 0.0028540755
000150 74 c1 3c 3b de e8 3d 3b f1 6a 3f 3b 03 07 40 3b
       0.002880183 0.002897791 0.002920803 0.0029301054
000160 37 db 41 3b 17 85 43 3b 73 53 45 3b 18 3e 47 3b
       0.0029580125 0.0029833966 0.0030109554 0.0030402
000170 91 7c 48 3b ef f0 4a 3b 27 ce 4e 3b f5 af 4f 3b
       0.0030591825 0.0030966362 0.0031555982 0.0031690572
000180 ab ec 50 3b 33 d1 51 3b 9d 90 54 3b db 8c 55 3b
       0.0031879346 0.0032015562 0.003243483 0.0032585177
000190 16 ff 5a 3b c3 f8 5b 3b 4c a7 5c 3b 3a 03 5e 3b
       0.0033416203 0.0033565022 0.0033669053 0.0033876435
0001a0 4c 4f 60 3b 84 19 61 3b 44 a1 65 3b 7b 83 66 3b
       0.0034226952 0.0034347484 0.0035038749 0.0035173583
0001b0 ac db 67 3b 2a a4 6a 3b 33 1f 6d 3b b4 2c 6f 3b
       0.0035378737 0.0035803416 0.0036181926 0.003649515
0001c0 bf d6 70 3b 46 0e 73 3b 89 5a 74 3b 28 10 76 3b
       0.0036749092 0.0037087365 0.0037285408 0.003754625
0001d0 16 62 77 3b 74 e5 7c 3b 9e 24 80 3b 2b 46 80 3b
       0.0037747673 0.0038588913 0.003910615 0.0039146147
0001e0 99 a6 81 3b 8e 5f 82 3b c5 e6 83 3b c2 18 84 3b
       0.0039566276 0.003978676 0.0040253126 0.0040312717
0001f0 3a d8 85 3b 36 4a 87 3b fb e8 87 3b 2d a7 89 3b
       0.004084614 0.0041287197 0.0041476465 0.004200837
000200 18 66 8b 3b b5 2f 8d 3b cf 00 8f 3b 25 22 91 3b
       0.004254114 0.0043086656 0.00436411 0.004429119
000210 1f ed 92 3b 52 dd 93 3b c6 49 94 3b df 20 96 3b
       0.0044838334 0.0045124674 0.004525396 0.0045815553
000220 19 52 97 3b 3d cd 9a 3b 00 40 9c 3b 01 8e 9e 3b
       0.004617941 0.0047241733 0.0047683716 0.0048387055
000230 22 62 9f 3b 17 20 a3 3b 2a 5f a5 3b ee d0 a5 3b
       0.0048639933 0.0049781906 0.005046745 0.0050603068
000240 54 d2 a8 3b 32 4a ab 3b 86 a4 ab 3b 05 44 af 3b
       0.005152026 0.0052273506 0.0052381186 0.0053486847
000250 20 a0 b1 3b b5 5f b3 3b 31 99 b6 3b f8 1b ba 3b
       0.0054206997 0.0054740557 0.005572461 0.0056796037
000260 68 f9 be 3b 03 37 c0 3b fe e3 c5 3b e8 bf c7 3b
       0.0058280714 0.005865933 0.0060391417 0.006095875
000270 5d dd ca 3b a1 bc cd 3b 33 15 d1 3b 11 fa d5 3b
       0.0061909393 0.00627859 0.006380701 0.0065300544
000280 09 ad d6 3b e1 53 dc 3b a6 12 e4 3b 96 9d e8 3b
       0.006551389 0.0067238663 0.006960231 0.007098864
000290 e8 b4 e9 3b 99 c6 ec 3b e5 d3 ee 3b 86 5d f7 3b
       0.0071321614 0.007225823 0.0072884434 0.0075489907
0002a0 36 0f fa 3b b4 f9 fe 3b 0c 98 00 3c 1a f5 03 3c
       0.007631208 0.007781232 0.007848751 0.008054042
0002b0 bb 10 08 3c e0 fb 0a 3c ce 0e 0c 3c 92 dc 0d 3c
       0.00830477 0.008482903 0.008548452 0.008658545
0002c0 be d7 0f 3c 00 96 15 3c d4 c1 19 3c 93 06 1f 3c
       0.008779464 0.009130001 0.009384591 0.009706157
0002d0 fc 4a 20 3c b3 3c 29 3c 69 e9 2b 3c 6b b8 2d 3c
       0.009783503 0.010329413 0.010492661 0.010603051
0002e0 fb 97 31 3c 03 14 35 3c 13 e2 3a 3c d1 f7 40 3c
       0.010839458 0.011052134 0.011406439 0.011777834
0002f0 7e 8d 43 3c 43 fa 52 3c af 4e 54 3c 8f 86 5f 3c
       0.01193559 0.01287705 0.012958213 0.013642921
000300 e0 c6 64 3c 70 d1 68 3c dd ad 6c 3c c6 01 7b 3c
       0.013963431 0.01421009 0.014445749 0.015320247
000310 cb a0 80 3c da 54 83 3c d7 91 89 3c d9 d3 8c 3c
       0.015701672 0.016031671 0.016793175 0.01719086
000320 e8 7a 90 3c bc 98 92 3c d8 f4 9b 3c 7a d0 9f 3c
       0.017636731 0.017895095 0.019037649 0.019508589
000330 97 7a a2 3c de a7 ab 3c 7a 8a b4 3c b9 5f bb 3c
       0.019833846 0.020954069 0.022038687 0.022872793
000340 30 49 bf 3c a6 86 c3 3c d2 0f cc 3c 0c f1 dc 3c
       0.023350328 0.023867916 0.024909887 0.026970409
000350 98 98 e2 3c 37 1c fe 3c eb e6 02 3d 0f 5a 0b 3d
       0.027660653 0.031019313 0.0319585 0.034021433
000360 4d 17 1a 3d 9d 93 1c 3d 7e 16 26 3d 46 ba 42 3d
       0.037619878 0.038226712 0.040548794 0.047540925
000370 a2 91 59 3d 35 fe 63 3d 9e 85 81 3d 3a bb 83 3d
       0.053117402 0.055662353 0.063243136 0.06432195
000380 0b 90 8f 3d c0 4a 9a 3d c8 51 a5 3d 39 0b ae 3d
       0.07009896 0.07533789 0.08072239 0.08498234
000390 e9 ef cf 3d 6b 30 dd 3d f5 50 f8 3d 80 ac 0b 3e
       0.10153181 0.108002506 0.12124816 0.13640022
0003a0 05 16 15 3e 94 13 18 3e 61 6a 24 3e 12 7a 3b 3e
       0.14559181 0.14851218 0.16056205 0.18308285
0003b0 40 db 5a 3e 86 2c 6b 3e a3 0c 75 3e ef d5 82 3e
       0.213727 0.22966203 0.23930602 0.25553843
0003c0 ba 0e a9 3e 08 6b b0 3e 97 d1 cc 3e 2e 7a d7 3e
       0.33019048 0.34456658 0.40003654 0.42085403
0003d0 a7 74 f8 3e 47 bd 08 3f 28 28 15 3f b5 25 3c 3f
       0.485265 0.53413814 0.582644 0.73495036
0003e0 ff 36 73 3f 22 1e 8a 3f 35 7b 97 3f 66 88 d0 3f
       0.9500579 1.0790446 1.1834475 1.6291625
0003f0 c2 20 da 3f aa a7 05 40 a2 16 a3 40 e1 fa b4 40
       1.7041247 2.0883584 5.096513 5.655625

transformer.h.0.mlp.c_proj f4 [64]
000000 66 0e 0f 35 a5 ea 45 3d ad b1 7e 3d 89 c3 8e 3d
       5.3292604e-07 0.048319478 0.062181164 0.06970889
000010 83 82 9b 3d 9f b2 b6 3d 2f a8 c0 3d 68 cf d2 3d
       0.075932525 0.08920788 0.094070785 0.10293466
000020 39 f3 df 3d 9d e9 f3 3d 8e 05 05 3e af 2e 0e 3e
       0.10935063 0.119097926 0.129904 0.13884996
000030 f9 d7 19 3e 78 9d 26 3e ef 3d 2f 3e 12 ca 33 3e
       0.15023793 0.16271007 0.1711347 0.17557552
000040 09 ad 42 3e 45 47 5c 3e 53 cc 61 3e 14 f6 6a 3e
       0.1901132 0.21511562 0.220506 0.22945434
000050 be 85 82 3e 12 d9 84 3e d8 41 8f 3e 7d 55 97 3e
       0.25492662 0.25946862 0.27979922 0.2955741
000060 c9 29 9d 3e 91 6e b2 3e 83 4b b9 3e 6a 55 cf 3e
       0.30695942 0.3484998 0.36190423 0.40494853
000070 55 e2 dd 3e be 17 e6 3e ee 04 e8 3e 22 e4 f3 3e
       0.4333674 0.4493999 0.4531626 0.4763499
000080 bd 15 0b 3f cd 45 13 3f 26 fe 16 3f ed d8 1e 3f
       0.54330045 0.5752838 0.5898155 0.6204975
000090 92 70 2b 3f c3 c9 34 3f b3 aa 3e 3f 91 dd 42 3f
       0.66968644 0.70620364 0.74479216 0.76119334
0000a0 77 ba 51 3f 79 49 64 3f bd 45 65 3f 5d 6e 81 3f
       0.8192515 0.8917461 0.8955954 1.0111805
0000b0 0c 8e 84 3f 8d 5a 89 3f 9d c9 98 3f 1e c9 ad 3f
       1.0355849 1.0730759 1.1936527 1.3577001
0000c0 71 bd b5 3f 59 ce be 3f ac a1 dc 3f 01 b1 ef 3f
       1.4198438 1.4906722 1.7236838 1.8725892
0000d0 9e 8d 00 40 2e 33 01 40 50 28 16 40 98 d4 25 40
       2.0086436 2.0187488 2.3462105 2.5911007
0000e0 b0 8e 4a 40 2f 92 6f 40 40 bd 98 40 94 89 a8 40
       3.164959 3.7432973 4.773102 5.266794
0000f0 17 82 d0 40 c5 23 d3 40 ba bc 90 41 81 f8 b9 41
       6.51588 6.5981164 18.092152 23.24634

transformer.h.1.attn.c_attn f4 [192]
000000 40 0f 6c 38 de 34 79 38 0c b9 8c 38 07 b8 bd 38
       5.6280987e-05 5.9415463e-05 6.710188e-05 9.0465e-05
000010 34 4a c3 38 82 74 de 38 8d cb e2 38 1e f1 eb 38
       9.312146e-05 0.00010607486 0.00010814434 0.00011250585
000020 65 48 f6 38 85 a5 0f 39 c6 80 19 39 91 56 22 39
       0.000117436786 0.00013699204 0.00014639189 0.00015481772
000030 2a c4 24 39 be 05 2b 39 db 62 33 39 93 c2 38 39
       0.00015713336 0.0001630997 0.00017107597 0.00017620092
000040 9f 89 42 39 27 8c 4a 39 40 ff 53 39 70 22 59 39
       0.0001855255 0.00019316432 0.00020217616 0.00020707562
000050 d0 96 5e 39 5b 83 68 39 14 97 71 39 86 f7 74 39
       0.00021227752 0.00022174178 0.00023039832 0.00023361863
000060 35 a1 7a 39 98 54 87 39 e9 2f 8c 39 94 87 91 39
       0.00023901912 0.00025812234 0.00026738577 0.0002775757
000070 fa 64 94 39 81 f4 99 39 b5 9d a1 39 ee f5 a2 39
       0.00028303993 0.00029364604 0.00030825814 0.0003108228
000080 38 0b ac 39 9f 8e b3 39 cd 00 b8 39 e4 5f c5 39
       0.00032814755 0.00034247802 0.00035095811 0.00037646212
000090 c5 a3 c7 39 d6 2f c8 39 2d 83 ca 39 2a 06 d8 39
       0.00038078256 0.00038182613 0.00038626176 0.00041203323
0000a0 36 05 e6 39 d0 b8 f3 39 96 bd f8 39 b7 77 02 3a
       0.000438729 0.00046486268 0.000474435 0.00049769453
0000b0 30 4a 06 3a b8 3b 0e 3a 00 76 0f 3a 30 29 14 3a
       0.0005122749 0.0005425769 0.00054726005 0.00056518894
0000c0 0c 6d 15 3a df fd 16 3a c0 01 1b 3a 8c 44 1c 3a
       0.0005700148 0.00057598756 0.00059130415 0.0005961142
0000d0 51 0d 1e 3a 4e ca 21 3a 70 26 24 3a 77 12 26 3a
       0.0006029206 0.00061718083 0.0006261831 0.0006335149
0000e0 30 cb 31 3a ee c4 42 3a fa 29 46 3a f4 0c 48 3a
       0.00067822915 0.00074298575 0.00075593556 0.00076313247
0000f0 50 32 4d 3a ed 6c 4e 3a 29 31 52 3a c7 b1 55 3a
       0.00078276265 0.00078745076 0.00080181897 0.0008151796
000100 2b 95 5f 3a a3 7f 62 3a 25 ca 68 3a f3 06 6c 3a
       0.00085290027 0.0008640235 0.00088802195 0.0009003721
000110 5b 77 72 3a f0 56 78 3a 76 6d 7c 3a a6 30 7f 3a
       0.0009249353 0.0009473404 0.0009629348 0.0009734727
000120 de 8a 83 3a 5c 06 87 3a 57 46 8c 3a 7c e1 8d 3a
       0.0010035892 0.0010301578 0.0010702115 0.0010824646
000130 6b 40 90 3a aa 5c 95 3a 0f 4d 97 3a 81 0d 9a 3a
       0.0011005526 0.0011395414 0.0011543351 0.0011753292
000140 ab 36 a1 3a 50 bc a1 3a 7e 35 a6 3a 22 c1 a9 3a
       0.0012299618 0.0012339447 0.0012680737 0.0012951235
000150 c4 bd aa 3a 97 c8 ad 3a a5 bc b4 3a 87 c6 b5 3a
       0.0013026525 0.0013258633 0.0013789131 0.001386837
000160 c4 e3 ba 3a 6a 72 bb 3a 37 22 be 3a 26 85 c0 3a
       0.0014258553 0.0014301066 0.0014506046 0.0014688119
000170 8c da c3 3a 15 b0 c5 3a ee 73 c7 3a 3f 87 cd 3a
       0.0014942451 0.0015082384 0.0015217045 0.0015680565
000180 90 fc ce 3a 77 34 d1 3a f9 53 d8 3a 36 83 da 3a
       0.0015791822 0.001596107 0.0016504518 0.0016671184
000190 0b 48 de 3a 49 6e e5 3a 57 c3 eb 3a eb 1c f3 3a
       0.0016958726 0.0017504181 0.0017987293 0.0018548047
0001a0 d2 61 f7 3a 7c 9d f8 3a e3 a1 fd 3a c9 40 00 3b
       0.0018873757 0.0018967832 0.0019350614 0.0019569865
0001b0 e2 7d 03 3b 16 1e 05 3b f5 ad 07 3b 62 bc 08 3b
       0.0020064046 0.0020312122 0.0020703052 0.0020864238
0001c0 4c 51 0b 3b d8 4e 0e 3b e2 2f 11 3b d5 09 13 3b
       0.0021258174 0.0021714475 0.0022153785 0.002243628
0001d0 fc 1f 17 3b a7 1b 1c 3b 75 5b 1f 3b d1 25 21 3b
       0.0023059836 0.0023820193 0.0024315987 0.002458919
0001e0 fc cc 25 3b 4e 01 27 3b c3 57 2d 3b 2d c5 2f 3b
       0.0025299182 0.0025482955 0.0026450015 0.0026820407
0001f0 25 3c 32 3b 10 ad 33 3b f0 43 36 3b be 19 3a 3b
       0.0027196493 0.0027416386 0.002781149 0.0028396691
000200 6e 3a 3c 3b e9 3e 40 3b f0 11 46 3b 0a 8e 4a 3b
       0.002872135 0.0029334372 0.0030223094 0.0030907416
000210 79 bc 4e 3b a3 5f 50 3b c7 b7 54 3b 3b aa 58 3b
       0.0031545444 0.0031795285 0.0032458173 0.003306045
000220 18 d6 5f 3b a0 5c 65 3b 21 b0 66 3b 58 a1 6d 3b
       0.003415471 0.0034997836 0.0035200196 0.0036259498
000230 0a 4d 73 3b c5 21 77 3b 6f 64 7d 3b 34 9b 80 3b
       0.0037124776 0.0037709337 0.00386646 0.0039247517
000240 49 ba 88 3b 47 17 8c 3b f7 67 8f 3b 69 ed 93 3b
       0.0041725975 0.004275236 0.0043764072 0.0045143855
000250 b6 be 98 3b d2 f8 99 3b 42 2d a1 3b 87 37 a2 3b
       0.0046614064 0.004698851 0.004918725 0.004950467
000260 2a 31 a7 3b fe 83 ac 3b b7 5e b1 3b e3 a7 b2 3b
       0.0051022964 0.005264758 0.005412902 0.0054521426
000270 4d a9 bb 3b 8a fc be 3b 76 10 c2 3b bc a8 c8 3b
       0.0057269693 0.005828445 0.0059223725 0.0061236303
000280 f7 bb cf 3b 72 2f d8 3b dd ad e0 3b d4 34 e9 3b
       0.006339546 0.006597453 0.0068566636 0.0071168933
000290 24 3c f0 3b 5b e8 f4 3b 62 03 04 3c 47 c7 0a 3c
       0.007331388 0.007473988 0.008057447 0.008470363
0002a0 0f 3c 10 3c be ec 16 3c bb 6c 1d 3c cc 1a 20 3c
       0.008803382 0.009211717 0.009608443 0.009772014
0002b0 f5 63 22 3c 67 9d 2f 3c d7 e1 3c 3c b4 0c 41 3c
       0.009911527 0.01071868 0.011528454 0.011782814
0002c0 dc bf 50 3c 21 19 66 3c 28 ca 82 3c 5e 1e 86 3c
       0.012741055 0.014044077 0.015965536 0.016371902
0002d0 30 f7 9c 3c db ea a0 3c 39 ae bd 3c a8 68 d5 3c
       0.019160837 0.019643238 0.023154365 0.02605088
0002e0 d7 0e f2 3c 68 db 04 3d 44 70 1f 3d 0d 56 68 3d
       0.029548092 0.032435805 0.038925424 0.05672269
0002f0 b5 47 9b 3d a9 b2 fd 3d 8f 9b 47 3e fa e5 0c 40
       0.075820364 0.12387592 0.19492935 2.2015367

transformer.h.1.attn.c_proj f4 [64]
000000 a9 aa c2 33 a6 51 4e 3d d2 f1 54 3d 13 13 8d 3d
       9.064872e-08 0.050370835 0.05198843 0.06888404
000010 31 9e c0 3d a5 47 d6 3d 9f cc 00 3e 4c 33 04 3e
       0.094051726 0.10462884 0.12578057 0.12910193
000020 fe e2 0c 3e f7 69 1c 3e cc 42 28 3e b3 e3 2f 3e
       0.13758466 0.15274797 0.16431731 0.17176704
000030 34 44 3a 3e ab e5 3a 3e 4e 63 49 3e d0 e7 58 3e
       0.1819008 0.18251674 0.19666788 0.2118218
000040 74 8d 6f 3e 7d 0f 7a 3e d1 f1 81 3e d4 e5 8b 3e
       0.23393804 0.24419971 0.25379804 0.27323782
000050 64 e3 93 3e 62 85 a7 3e 4b 85 ac 3e 8a 4d bd 3e
       0.28884423 0.3271895 0.33695444 0.3697322
000060 98 15 bf 3e 5a 75 ce 3e 4a 5a de 3e 1f f9 f3 3e
       0.37321162 0.40323907 0.4342826 0.47651002
000070 ae 3e fc 3e 6e 7b 0a 3f 15 ed 12 3f 80 f4 1b 3f
       0.4926657 0.5409459 0.5739301 0.6091995
000080 8f b9 1c 3f d3 6f 22 3f bd 0c 2b 3f b9 a9 38 3f
       0.6122064 0.6345188 0.6681631 0.72133976
000090 10 c4 3c 3f 2f 6f 44 3f 9d e4 52 3f 96 71 6a 3f
       0.7373667 0.7673215 0.82380086 0.9157957
0000a0 2e 14 75 3f 1b 25 78 3f 46 f1 8c 3f f1 fd 99 3f
       0.95733917 0.9693162 1.1011131 1.2030622
0000b0 de d4 a2 3f d1 16 b7 3f 7a df ba 3f 98 87 c1 3f
       1.2721212 1.4303838 1.459945 1.5119505
0000c0 4e dd d2 3f bb b8 dd 3f 70 b6 f6 3f 32 cc 0c 40
       1.6473787 1.7322 1.9274426 2.199963
0000d0 48 11 1b 40 a6 84 1d 40 47 c6 25 40 cc 6a 4a 40
       2.4229298 2.4612212 2.590227 3.1627684
0000e0 9e b0 6b 40 2e 96 9a 40 81 8b 9e 40 13 d5 c3 40
       3.6826549 4.8308325 4.9545293 6.11976
0000f0 cc 13 cd 40 8c 3c 87 41 0e a0 a4 41 f5 7a c0 41
       6.4086666 16.904564 20.578152 24.060038

transformer.h.1.mlp.c_fc f4 [256]
000000 f5 f7 8b 3a 12 e7 99 3a 6d ec ae 3a b3 ac b3 3a
       0.0010678755 0.0011741838 0.0013345607 0.0013708085
000010 38 28 b7 3a 9e 85 bc 3a da 9c c3 3a 44 f4 c8 3a
       0.0013973778 0.0014383083 0.0014924065 0.0015331586
000020 cb 96 d4 3a ce da d5 3a a8 74 db 3a 9b 4e dd 3a
       0.0016219256 0.0016315819 0.001674314 0.0016884388
000030 df 41 df 3a 08 dc e0 3a a2 84 e5 3a 28 bf eb 3a
       0.0017033181 0.0017155418 0.0017510841 0.0017986046
000040 c3 5a ee 3a 16 5e f0 3a 57 f5 f3 3a db 5a f8 3a
       0.0018185008 0.0018338587 0.0018612546 0.0018947975
000050 bc 56 fb 3a 30 10 00 3b 59 38 02 3b 64 15 03 3b
       0.0019175629 0.0019540899 0.0019870012 0.0020001763
000060 a6 42 04 3b ce df 05 3b 9b 19 06 3b 8f b6 07 3b
       0.0020181327 0.0020427587 0.002046204 0.0020708179
000070 40 08 0a 3b d9 1c 0c 3b 5b d3 0d 3b 50 02 0e 3b
       0.0021062046 0.00213795 0.002164087 0.0021668859
000080 8a b7 0e 3b 3a 66 0f 3b 47 40 12 3b 78 2c 14 3b
       0.0021776878 0.0021881 0.0022316144 0.0022609513
000090 e5 ff 14 3b cc 78 17 3b 07 b5 18 3b 52 5e 1b 3b
       0.0022735533 0.0023112772 0.002330126 0.0023707342
0000a0 65 97 1b 3b ac b7 1d 3b 13 cb 1e 3b 00 af 1f 3b
       0.0023741361 0.0024065776 0.0024229928 0.0024365783
0000b0 62 2e 21 3b fe 79 23 3b 66 a9 25 3b 75 d1 25 3b
       0.0024594297 0.002494454 0.0025277971 0.0025301848
0000c0 1b 76 28 3b f2 b5 29 3b e4 bd 2a 3b 79 25 2c 3b
       0.0025705162 0.0025895801 0.0026053125 0.0026267453
0000d0 5e 18 2e 3b 46 c9 30 3b 1b 2e 31 3b 9d b6 31 3b
       0.0026564817 0.0026975437 0.0027035538 0.0027116903
0000e0 fb 4b 34 3b a6 5b 35 3b f2 7d 35 3b 92 01 38 3b
       0.0027511108 0.0027673035 0.0027693477 0.0028077108
0000f0 5e 2b 3a 3b c5 66 3c 3b 8e 81 3e 3b 8e cd 3f 3b
       0.0028407197 0.002874778 0.002906892 0.0029266807
000100 66 80 41 3b fa 71 42 3b cb d9 44 3b 32 07 46 3b
       0.0029525994 0.0029669986 0.0030037041 0.003021669
000110 b0 21 47 3b f0 e2 47 3b 9e 9c 48 3b 50 6b 4c 3b
       0.003038507 0.0030500256 0.003061093 0.0031191893
000120 ec f6 4c 3b 3a cc 50 3b ce 88 52 3b b7 1e 56 3b
       0.0031275107 0.003186001 0.0032125 0.0032672116
000130 db 99 56 3b 9d 79 57 3b 98 c4 59 3b 0a 16 5b 3b
       0.0032745514 0.0032878884 0.0033228751 0.0033429884
000140 d3 0d 5c 3b c2 39 5f 3b d0 a2 63 3b 1c 9d 64 3b
       0.0033577576 0.0034061526 0.0034734495 0.0034883684
000150 72 42 66 3b 0f 9c 68 3b f8 a0 69 3b f4 97 6b 3b
       0.003513482 0.0035493409 0.0035648923 0.0035948725
000160 a8 8c 6c 3b 50 fd 6f 3b 5a cc 72 3b b0 c3 73 3b
       0.003609458 0.0036619492 0.0037048073 0.0037195496
000170 dc a0 77 3b 8e c0 78 3b 4d 86 7b 3b e6 fe 7c 3b
       0.0037785089 0.0037956568 0.003837961 0.003860408
000180 19 90 80 3b 7f 46 82 3b c7 9b 82 3b d8 94 83 3b
       0.003923428 0.003975689 0.0039858553 0.0040155463
000190 38 cf 84 3b 52 69 87 3b 20 33 89 3b 30 5c 89 3b
       0.0040530227 0.004132428 0.004187003 0.004191898
0001a0 e5 0b 8d 3b 29 41 8d 3b 89 d0 8d 3b b1 f3 8e 3b
       0.0043043965 0.004310746 0.004327838 0.0043625464
0001b0 19 e2 90 3b 1d 51 92 3b 3e 43 95 3b 66 34 96 3b
       0.004421484 0.004465236 0.004555135 0.004583883
0001c0 0f 8f 96 3b 0b 54 99 3b 91 0e 9a 3b 1e 77 9b 3b
       0.0045946906 0.004679208 0.0047014435 0.0047444245
0001d0 2a d2 9d 3b ce 87 9e 3b e3 87 9f 3b 8f 2f a3 3b
       0.0048163133 0.0048379665 0.004868494 0.0049800347
0001e0 62 d4 a4 3b e6 ff a8 3b c8 68 ab 3b 47 7e ab 3b
       0.005030201 0.0051574586 0.0052309968 0.0052335593
0001f0 11 f9 ad 3b da 32 b1 3b 7e 06 b2 3b 4b 70 b3 3b
       0.005309232 0.0054076733 0.005432903 0.005476033
000200 bf 62 b5 3b fc 94 b8 3b a1 2c b9 3b f0 e4 be 3b
       0.005535453 0.0056329947 0.005651072 0.0058256313
000210 9f 25 c1 3b 42 35 c2 3b 5f 61 c6 3b 64 70 c8 3b
       0.0058943774 0.005926759 0.006054088 0.0061169136
000220 39 37 cd 3b f5 76 ce 3b 05 b7 d4 3b f0 48 d5 3b
       0.0062626866 0.006300802 0.006491544 0.006508939
000230 9c 52 d6 3b 51 c0 dd 3b 31 4d e0 3b 8d 2e e2 3b
       0.0065406095 0.0067673107 0.0068451394 0.006902522
000240 ed 9d e9 3b ca 4b ea 3b e7 e5 ee 3b 0d a9 f5 3b
       0.007129422 0.007150148 0.00729059 0.007496959
000250 e1 57 f9 3b 8d 24 fd 3b 09 95 00 3c a9 9f 03 3c
       0.007609353 0.0077253045 0.007848033 0.008033671
000260 c6 bb 05 3c 90 6f 07 3c d3 5f 08 3c 3a 63 0a 3c
       0.008162444 0.008266345 0.0083236275 0.008446509
000270 52 53 0e 3c 84 0a 15 3c e3 a6 18 3c 4d a5 1a 3c
       0.008686857 0.009096745 0.009317133 0.009438825
000280 51 53 21 3c ce ca 23 3c c1 1d 24 3c aa 8d 29 3c
       0.009846524 0.009997083 0.0100168595 0.010348717
000290 f8 9c 2a 3c 6e 42 2b 3c a9 47 33 3c 87 a9 37 3c
       0.010413401 0.01045285 0.010942378 0.011209852
0002a0 22 5e 3a 3c 69 e5 3f 3c 16 ca 42 3c 30 c9 45 3c
       0.011374982 0.0117124105 0.011889001 0.012071893
0002b0 78 d7 47 3c a0 74 4e 3c 03 86 57 3c e1 1c 5a 3c
       0.012197368 0.012601048 0.0131545095 0.013312549
0002c0 5d f1 60 3c 23 75 64 3c cd 42 66 3c ed 93 6b 3c
       0.0137294205 0.013943943 0.0140540125 0.01437853
0002d0 f6 f7 70 3c a5 de 77 3c 2d 64 7a 3c 3a f9 80 3c
       0.014707556 0.015128766 0.015282673 0.01574384
0002e0 7a 2e 84 3c ce 4a 86 3c 62 b4 8b 3c 8d fb 92 3c
       0.016135443 0.016393092 0.017053787 0.017942214
0002f0 ba 39 93 3c 37 f0 97 3c 29 f8 9b 3c 99 dc 9d 3c
       0.017971862 0.01854716 0.01903923 0.019270228
000300 13 4d a1 3c 54 52 a3 3c 64 97 a9 3c 0b 43 ae 3c
       0.019690072 0.019936718 0.020702071 0.021272203
000310 dd b7 b0 3c 11 a2 b2 3c 8a f8 b9 3c 75 3e c0 3c
       0.021572048 0.021805795 0.02270152 0.023467282
000320 9b a1 c1 3c 6b c5 c4 3c f7 60 c7 3c 10 01 cb 3c
       0.02363663 0.024019917 0.024338229 0.02478078
000330 bf bf d5 3c cf fd da 3c 4d 5d e2 3c a1 f8 e4 3c
       0.026092408 0.026732353 0.02763238 0.027950587
000340 f7 34 ec 3c 3e 07 f9 3c 62 89 fb 3c 62 29 00 3d
       0.02883385 0.030398961 0.030705158 0.031289466
000350 df 72 03 3d 58 ec 0a 3d 58 1e 11 3d e5 79 15 3d
       0.03209197 0.0339168 0.03542933 0.0364932
000360 38 27 1c 3d f3 98 1e 3d e0 79 25 3d 3a 0f 2b 3d
       0.03812334 0.038720082 0.040399432 0.041762568
000370 4f 4d 32 3d c0 79 3a 3d 6f 22 3b 3d a8 0a 41 3d
       0.04353076 0.045526266 0.045687135 0.047129303
000380 fd 5b 47 3d 67 f6 4c 3d 60 ad 55 3d fa cd 64 3d
       0.04867171 0.050039675 0.052167296 0.055860497
000390 e9 29 6e 3d bf 2d 7a 3d 4d c8 89 3d 77 57 8e 3d
       0.058145437 0.061078783 0.067276575 0.06950276
0003a0 bf 07 9a 3d 4c ea 9b 3d f2 a8 a8 3d 98 89 b8 3d
       0.07521009 0.07613048 0.08235349 0.09010619
0003b0 84 a8 bf 3d 2c 34 d0 3d d9 38 d7 3d e7 33 e4 3d
       0.09358314 0.10166201 0.1050889 0.11142712
0003c0 37 0a 09 3e a6 94 0a 3e 7f 97 1b 3e 0a 70 37 3e
       0.13382803 0.13533267 0.1519451 0.17913833
0003d0 49 4d 3b 3e 57 0d 52 3e 3a ca 60 3e c9 ae 84 3e
       0.182912 0.20512901 0.21952143 0.259146
0003e0 ad 99 89 3e 65 cd 8f 3e 81 35 af 3e b5 00 da 3e
       0.26875058 0.2808639 0.34220508 0.42578664
0003f0 8c dd ea 3e 92 64 2a 3f ac 76 63 3f 34 f3 aa 3f
       0.45872152 0.6655971 0.88852954 1.335547

transformer.h.1.mlp.c_proj f4 [64]
000000 eb b1 30 34 c6 52 51 3e 36 fc 5d 3e 3c 29 6b 3e
       1.6456003e-07 0.20441732 0.21678242 0.22964948
000010 f4 e9 7b 3e fc ab 84 3e 9f a2 8e 3e de 29 95 3e
       0.24600965 0.25912464 0.27858445 0.29133505
000020 c5 b3 9a 3e 18 53 ab 3e e2 bf b4 3e 8f b6 b6 3e
       0.30215278 0.33461833 0.35302645 0.35686156
000030 2e 75 be 3e c6 cb cd 3e b1 7f d6 3e e2 64 d7 3e
       0.37198776 0.4019453 0.41894296 0.42069155
000040 1c 3a e3 3e f9 b7 ea 3e 78 d2 f2 3e e0 35 f6 3e
       0.4438027 0.45843485 0.474262 0.48087978
000050 4f 00 fe 3e 3b 7f 02 3f 91 d8 0c 3f 5d 04 0f 3f
       0.4960961 0.5097539 0.55017954 0.5586603
000060 bd a0 13 3f 96 96 19 3f 00 1a 24 3f 71 e8 26 3f
       0.5766714 0.599954 0.6410217 0.6519843
000070 1e 7a 29 3f d2 6c 32 3f 6f 17 38 3f 93 e9 3d 3f
       0.6620196 0.69697297 0.71910757 0.7418453
000080 d2 01 44 3f 98 34 4e 3f bc d5 56 3f 69 47 69 3f
       0.7656528 0.80549 0.8391988 0.9112459
000090 24 36 6c 3f 69 74 71 3f f2 51 76 3f 13 3d 80 3f
       0.9227011 0.9431825 0.9621879 1.0018638
0000a0 7c f6 8d 3f 68 2c 90 3f 59 a3 99 3f e5 20 9b 3f
       1.1090846 1.1263552 1.2002975 1.2119414
0000b0 66 40 a3 3f ba a2 b1 3f 45 53 b7 3f b3 81 bd 3f
       1.2754028 1.3877785 1.4322287 1.4805206
0000c0 08 c9 d2 3f de 2b dd 3f e8 f4 e9 3f 10 25 04 40
       1.64676 1.7279012 1.8277864 2.064762
0000d0 6b 9a 07 40 ef 09 11 40 84 97 37 40 39 e6 3a 40
       2.1188 2.2662313 2.8686228 2.9203017
0000e0 e4 71 4c 40 79 71 6f 40 66 a6 8d 40 fd d5 94 40
       3.1944513 3.7413008 4.4265623 4.6511216
0000f0 41 38 ba 40 e2 ba 30 41 b6 9f 6c 41 4c 9c a0 41
       5.819367 11.045626 14.788992 20.076317

transformer.h.2.attn.c_attn f4 [192]
000000 5f b2 d5 38 d9 a7 23 39 ef c7 38 39 72 1a 3a 39
       0.00010189856 0.0001560742 0.00017622088 0.00017748194
000010 48 9c 51 39 d2 f5 5f 39 1e 78 6d 39 c4 9f 75 39
       0.00019990013 0.00021358512 0.00022646828 0.00023424538
000020 37 24 7c 39 92 98 83 39 5b 67 87 39 32 d8 98 39
       0.00024046084 0.0002509994 0.00025826212 0.00029152777
000030 cd ae a8 39 8f 98 ab 39 9f 70 b0 39 9a 71 be 39
       0.00032173694 0.00032729327 0.00033653245 0.00036324264
000040 43 f6 c6 39 71 70 cb 39 24 97 d2 39 d9 55 d5 39
       0.00037948982 0.00038802953 0.0004016693 0.00040690487
000050 15 0e da 39 92 eb df 39 a9 2b e6 39 2b a2 e9 39
       0.00041590692 0.00042709388 0.00043901548 0.00044562048
000060 b8 77 f3 39 6f 20 02 3a 7e 55 03 3a 10 3c 05 3a
       0.0004643777 0.00049639394 0.0005009993 0.00050824974
000070 b9 2c 08 3a f1 e2 08 3a 72 ee 09 3a 91 15 0d 3a
       0.00051946525 0.0005221805 0.00052616664 0.0005381937
000080 7c 56 10 3a cc 5f 14 3a 34 d9 1c 3a 88 72 1d 3a
       0.0005506051 0.0005660027 0.00059832935 0.0006006141
000090 81 c0 1e 3a 7f 5e 23 3a 3f 84 2b 3a a9 02 2f 3a
       0.0006055907 0.00062320376 0.00065428385 0.00066761166
0000a0 1c 85 32 3a 3d 19 34 3a 27 6d 3c 3a 97 7b 41 3a
       0.0006809996 0.0006870216 0.0007187896 0.0007380782
0000b0 27 87 44 3a dd 37 4a 3a a0 4e 4d 3a 77 de 55 3a
       0.0007496946 0.0007714013 0.00078318454 0.0008158455
0000c0 c5 65 5d 3a a7 ed 64 3a 75 9d 66 3a 70 c3 6e 3a
       0.0008445646 0.0008732923 0.00087972666 0.0009108102
0000d0 e5 9b 73 3a 2e 20 7b 3a fb 30 82 3a 54 55 83 3a
       0.00092929445 0.0009579685 0.000993281 0.0010019937
0000e0 1e f2 86 3a b3 77 8a 3a c3 63 8c 3a 26 90 91 3a
       0.0010295545 0.0010564238 0.0010710884 0.0011105582
0000f0 55 59 95 3a 21 c5 9f 3a c4 32 a2 3a 51 b7 a9 3a
       0.0011394421 0.0012189486 0.0012374748 0.0012948309
000100 ba 39 ae 3a 6f d5 b6 3a 4d 43 b9 3a fd 34 c0 3a
       0.001329235 0.0013949106 0.0014134437 0.0014664229
000110 4a ae c3 3a 28 5b c8 3a 15 6a cd 3a ea 0a d2 3a
       0.0014929262 0.0015285956 0.0015671874 0.0016024981
000120 4a 23 d8 3a 52 b2 dc 3a 45 24 f0 3a 1b a0 f1 3a
       0.0016490009 0.0016837812 0.0018321356 0.0018434556
000130 a8 52 fd 3a bf 6b 08 3b 92 b9 0c 3b c5 e7 10 3b
       0.0019327002 0.0020816175 0.0021472913 0.0022110802
000140 6e 32 12 3b eb 92 17 3b 8a 79 18 3b 8c 79 1a 3b
       0.002230789 0.0023128341 0.0023265802 0.0023570983
000150 0a 9d 1c 3b 8b 11 26 3b 46 be 2c 3b 02 78 30 3b
       0.0023897314 0.0025340046 0.002635853 0.0026927
000160 05 40 35 3b f0 ca 3b 3b 55 3f 3e 3b 18 47 42 3b
       0.0027656567 0.0028654896 0.0029029448 0.0029644426
000170 4d 15 47 3b de 8a 58 3b 35 08 5c 3b 05 df 5f 3b
       0.0030377686 0.0033041756 0.0033574228 0.003416003
000180 80 77 64 3b e4 da 70 3b 03 9d 7a 3b 8c cf 82 3b
       0.0034861267 0.0036751563 0.003824056 0.0039920267
000190 03 88 86 3b 5f 41 89 3b a6 53 8b 3b 69 55 8c 3b
       0.0041055693 0.004188701 0.004251915 0.0042826426
0001a0 58 84 93 3b 3b 82 94 3b 56 93 99 3b 17 fe 9d 3b
       0.0045018606 0.0045321262 0.0046867533 0.0048215496
0001b0 ad f4 a4 3b 98 fb a7 3b 9e f0 ad 3b 93 8f af 3b
       0.0050340504 0.005126428 0.005308225 0.0053576916
0001c0 7e 08 b4 3b 12 78 ba 3b 2b 3d c0 3b 01 ee c3 3b
       0.0054941764 0.005690583 0.005866667 0.0059793
0001d0 4f 03 c7 3b 1c ae c9 3b a8 40 ce 3b 38 c9 d1 3b
       0.0060733925 0.0061547887 0.0062943287 0.006402161
0001e0 da 68 d9 3b 54 4f dd 3b 90 98 e4 3b 62 dc e8 3b
       0.0066348137 0.0067538414 0.0069761947 0.00710635
0001f0 13 c4 ee 3b 52 ec f2 3b 2e 61 f5 3b 9e 55 fb 3b
       0.0072865575 0.0074134255 0.0074883914 0.0076701185
000200 b5 a4 01 3c fb 34 06 3c c3 8c 09 3c aa 52 0d 3c
       0.007912804 0.008191342 0.008395377 0.008625666
000210 7d 49 11 3c 29 0b 14 3c 70 a4 17 3c e9 c3 1f 3c
       0.008867619 0.009035864 0.009255514 0.009751298
000220 b6 1f 23 3c 9a 7b 26 3c 8a e2 2b 3c 7b 4d 2f 3c
       0.009956291 0.010161305 0.010491023 0.010699625
000230 94 1c 33 3c e4 30 3a 3c 25 2a 42 3c d6 60 43 3c
       0.0109321065 0.0113641955 0.011850868 0.011924943
000240 3c 2e 48 3c a7 ce 4e 3c ea 2c 56 3c 67 6f 59 3c
       0.012218054 0.012622512 0.013072232 0.013271189
000250 bd 8c 5d 3c 18 58 67 3c 6b b4 6e 3c 92 7f 75 3c
       0.013522324 0.014120124 0.014569382 0.014984028
000260 ea 23 7a 3c 67 0f 83 3c e3 8f 8a 3c 1b 46 8c 3c
       0.015267352 0.015998555 0.016914314 0.017123273
000270 93 63 90 3c 4a e9 95 3c fc e9 99 3c 45 59 a1 3c
       0.017625606 0.018299717 0.01878833 0.019695887
000280 44 ef a6 3c a3 d4 a9 3c 4a 40 b4 3c 48 9f b4 3c
       0.020377763 0.020731276 0.022003312 0.022048607
000290 5a ee bd 3c c0 cf c3 3c 18 43 c9 3c 17 35 d0 3c
       0.023184944 0.023902774 0.024568126 0.02541594
0002a0 e4 05 dc 3c dd 1d e1 3c f5 64 ef 3c c1 f0 f5 3c
       0.026858278 0.02748006 0.029222945 0.030022027
0002b0 a2 0f fe 3c 66 58 01 3d 99 af 0a 3d 46 8b 0e 3d
       0.031013314 0.031578444 0.03385887 0.03480079
0002c0 a3 9f 18 3d 93 83 22 3d 0c 0e 2a 3d d2 36 32 3d
       0.037261616 0.03967626 0.041517302 0.043509312
0002d0 89 8c 4b 3d 94 e7 5e 3d b2 85 7c 3d 84 3c 8c 3d
       0.04969457 0.05442007 0.06165094 0.0684748
0002e0 90 c0 9f 3d 45 89 a8 3d 9b e1 cf 3d 06 78 0d 3e
       0.078004 0.08229307 0.10150453 0.13815317
0002f0 95 37 11 3e ea 95 83 3e 76 e5 31 3f 31 b6 e3 40
       0.14181359 0.25700313 0.69490755 7.11599

transformer.h.2.attn.c_proj f4 [64]
000000 91 96 33 b5 20 c5 44 3e 86 b2 5e 3e 38 f3 65 3e
       -6.69018e-07 0.19215822 0.21747789 0.22456062
000010 ac 35 77 3e 89 4e 85 3e 77 ad 87 3e eb 8d 92 3e
       0.24141568 0.2603648 0.2649953 0.286239
000020 97 5c 9d 3e af 59 a9 3e d8 87 b1 3e f2 b1 bd 3e
       0.30734703 0.33076236 0.34673953 0.37049824
000030 13 6a c2 3e df ac ce 3e 62 8f d2 3e cb b9 d8 3e
       0.37971553 0.40366265 0.41125017 0.4232925
000040 75 9f dd 3e c7 65 e6 3e 42 b0 f3 3e 5e 05 f8 3e
       0.4328572 0.44999525 0.47595412 0.48441595
000050 70 44 03 3f e1 51 08 3f e1 de 0c 3f 3e a8 12 3f
       0.512763 0.5324994 0.55027586 0.5728797
000060 9f 90 19 3f 8e 1b 1f 3f 1d a1 24 3f 89 3c 2a 3f
       0.599863 0.6215142 0.6430834 0.6649862
000070 ad 62 30 3f 80 02 3a 3f 9d cf 40 3f fb 46 51 3f
       0.6890057 0.72660065 0.7531679 0.8174893
000080 84 5d 53 3f 9a 5f 5a 3f 3c 5b 5c 3f ad 96 68 3f
       0.8256457 0.85302126 0.8607671 0.90854913
000090 48 87 6e 3f 63 b2 79 3f f4 84 80 3f 3f eb 88 3f
       0.9317517 0.9753782 1.0040574 1.0696791
0000a0 31 f9 8d 3f 24 52 9b 3f ea 31 a1 3f 68 d3 a4 3f
       1.1091672 1.2134442 1.2593358 1.2877016
0000b0 5d c1 af 3f e1 e4 c7 3f 6d f3 c8 3f 16 12 db 3f
       1.3730885 1.5616723 1.5699288 1.7114894
0000c0 d6 fb ea 3f 40 0f f5 3f 87 f2 00 40 92 6e 16 40
       1.8358104 1.9145279 2.0148027 2.3504987
0000d0 f6 86 1e 40 58 63 32 40 b7 de 47 40 37 db 4c 40
       2.4769874 2.7873135 3.1229684 3.2008798
0000e0 93 df 71 40 c7 ea 80 40 32 af 91 40 a3 62 c0 40
       3.779271 4.0286593 4.552636 6.0120406
0000f0 63 fd e8 40 57 0f 30 41 1e 50 89 41 aa d5 e8 42
       7.280931 11.003745 17.16412 116.41731

transformer.h.2.mlp.c_fc f4 [256]
000000 00 6f e3 3a 05 01 04 3b 29 1e 05 3b b1 77 07 3b
       0.0017351806 0.002014221 0.0020312166 0.0020670707
000010 8a 48 0a 3b 94 b6 0b 3b 39 12 0f 3b 8e 41 10 3b
       0.0021100366 0.0021318542 0.002183093 0.002201173
000020 75 27 12 3b 50 b6 13 3b 58 35 17 3b 8c a8 17 3b
       0.002230135 0.0022539087 0.0023072567 0.0023141233
000030 64 c1 19 3b 5e 34 1b 3b 1f 8d 1c 3b 88 d0 1e 3b
       0.0023461217 0.0023682336 0.0023887826 0.002423318
000040 5c fa 20 3b 29 22 21 3b 3c a8 24 3b c8 73 26 3b
       0.0024563288 0.0024587011 0.002512469 0.00253986
000050 97 a9 27 3b 3a b1 29 3b 65 32 2b 3b 6c 15 2c 3b
       0.002558326 0.0025892989 0.0026122567 0.0026257886
000060 28 e1 2d 3b 88 f1 30 3b b2 94 31 3b c0 5a 32 3b
       0.0026531909 0.0026999433 0.0027096686 0.0027214736
000070 86 7c 34 3b ee b5 35 3b 0a 2d 38 3b 15 ec 38 3b
       0.0027540042 0.0027726847 0.0028103017 0.0028216888
000080 59 7b 39 3b ff 34 3b 3b 08 20 3d 3b 37 69 40 3b
       0.002830228 0.0028565524 0.0028858203 0.0029359588
000090 db 88 41 3b 67 51 43 3b d6 5d 45 3b 38 98 45 3b
       0.0029531035 0.0029803158 0.0030115745 0.0030150544
0000a0 bd 64 46 3b 22 e4 47 3b e3 5e 4a 3b 6e 0b 4b 3b
       0.0030272447 0.0030500968 0.003087931 0.0030982154
0000b0 4e 81 4b 3b bd 7f 4e 3b 25 fe 4f 3b 6b e2 52 3b
       0.0031052413 0.0031509243 0.0031737175 0.0032178413
0000c0 b9 01 54 3b e6 7c 55 3b aa 2e 57 3b 27 d0 57 3b
       0.003234966 0.0032575666 0.003283421 0.0032930465
0000d0 56 e7 59 3b 00 5b 5a 3b d7 bc 5d 3b af 66 60 3b
       0.003324946 0.00333184 0.003383448 0.0034240892
0000e0 a7 89 63 3b cb 71 64 3b dc 1e 65 3b 45 2f 67 3b
       0.0034719498 0.0034857865 0.003496102 0.0035275978
0000f0 e7 ec 6a 3b a7 6b 6b 3b 36 18 6c 3b b6 35 6e 3b
       0.0035846771 0.003592232 0.0036025173 0.0036347932
000100 ab d5 6e 3b 78 a9 72 3b fe 06 73 3b c3 28 76 3b
       0.0036443274 0.003702728 0.0037083025 0.0037560917
000110 85 d8 77 3b 85 f7 79 3b b3 91 7c 3b 9e 66 7e 3b
       0.0037818265 0.0038141918 0.0038538992 0.0038818489
000120 07 f9 80 3b 45 35 82 3b db 58 82 3b 26 a8 82 3b
       0.0039359364 0.0039736354 0.0039778776 0.00398733
000130 80 2a 84 3b 1a e7 84 3b fb 50 85 3b 78 ce 87 3b
       0.0040333867 0.0040558698 0.0040684915 0.004144486
000140 af 89 88 3b a7 d6 89 3b 4b 85 8a 3b 4b 43 8c 3b
       0.004166804 0.0042064968 0.0042273155 0.004280483
000150 f8 75 8d 3b c9 a1 8e 3b a3 bf 8e 3b 7c fd 90 3b
       0.0043170415 0.0043527824 0.004356341 0.004424749
000160 9d d4 91 3b fd 87 92 3b 6c 5a 94 3b 96 a1 94 3b
       0.0044503943 0.0044717775 0.0045273807 0.004535864
000170 0c 2b 97 3b 5e a2 98 3b 08 06 9a 3b 31 12 9b 3b
       0.004613286 0.0046580276 0.004700426 0.004732393
000180 8c 18 9d 3b 5e 39 9e 3b 64 8f 9f 3b cf 84 a0 3b
       0.004794186 0.004828616 0.0048693884 0.0048986445
000190 a3 ae a1 3b ab 36 a2 3b c9 4f a3 3b d8 c1 a5 3b
       0.0049341484 0.0049503646 0.0049838764 0.0050585084
0001a0 50 41 a6 3b 5a 88 a7 3b a8 ab a7 3b 56 88 ac 3b
       0.005073704 0.00511269 0.0051168986 0.005265276
0001b0 cb ed ad 3b dd 58 ae 3b f5 35 b0 3b d1 0e b2 3b
       0.005307888 0.005320652 0.005377526 0.005433895
0001c0 6d c8 b3 3b ef 47 b5 3b b1 b4 b6 3b 84 28 b9 3b
       0.005486539 0.005532257 0.0055757393 0.005650582
0001d0 1a 10 ba 3b f3 d8 ba 3b 0c 24 bd 3b 73 7d be 3b
       0.005678189 0.005702132 0.0057721194 0.0058132946
0001e0 3c e4 be 3b b5 35 c2 3b d7 b4 c3 3b 9c 83 c6 3b
       0.0058255475 0.0059268125 0.0059724855 0.0060581695
0001f0 df cc c7 3b f1 c6 c8 3b 62 04 cc 3b 2d a9 ce 3b
       0.0060974206 0.0061272313 0.0062261084 0.0063067884
000200 d6 a1 cf 3b 3d 4c d1 3b 82 0e d2 3b 87 64 d7 3b
       0.006336431 0.006387262 0.006410421 0.006573263
000210 6d 95 d8 3b 5b 76 d9 3b 00 90 db 3b 3c a5 de 3b
       0.00660961 0.0066364235 0.0067005157 0.0067946
000220 c7 dd e2 3b 1b 18 e3 3b ae e2 e6 3b 16 5b e8 3b
       0.0069234106 0.006930364 0.0070460653 0.0070909364
000230 0c 89 ea 3b 2e b6 f0 3b 20 5a f2 3b cf f1 f5 3b
       0.0071574505 0.0073459363 0.0073959976 0.0075056325
000240 10 0e fa 3b 4b 3a fa 3b cf 7b ff 3b ef f0 00 3c
       0.007631071 0.0076363436 0.0077967416 0.007869943
000250 18 c1 01 3c 86 9e 04 3c 76 fc 05 3c ba 82 09 3c
       0.007919572 0.008094436 0.008177867 0.008392984
000260 d8 8a 0b 3c 54 7c 0d 3c a6 21 0f 3c fe 31 10 3c
       0.00851699 0.008635599 0.00873605 0.008800982
000270 10 2c 12 3c 8e 2e 13 3c 7e dc 13 3c 40 8d 16 3c
       0.008921638 0.0089832675 0.009024737 0.00918895
000280 57 87 18 3c fc 3d 1a 3c 27 04 1b 3c 4c b7 1d 3c
       0.009309611 0.009414192 0.009461439 0.009626221
000290 3d 14 20 3c bf 37 21 3c 7a c9 24 3c 50 44 27 3c
       0.00977045 0.009839951 0.010057801 0.010209158
0002a0 f7 3b 2a 3c 08 bf 2c 3c 30 01 30 3c 92 a1 34 3c
       0.010390273 0.010543592 0.010742471 0.0110248495
0002b0 bf 68 37 3c 07 be 3b 3c 18 25 40 3c ce 18 41 3c
       0.011194407 0.01145888 0.011727594 0.011785699
0002c0 31 27 44 3c d1 ff 46 3c 3b 57 49 3c be 0b 4e 3c
       0.011972235 0.012145952 0.012288864 0.012576042
0002d0 b0 a1 50 3c d6 b0 54 3c 94 25 56 3c 3f ce 5d 3c
       0.012733862 0.012981614 0.013070483 0.013537942
0002e0 6e 0a 60 3c ab 99 66 3c 4e c7 69 3c b2 cb 6b 3c
       0.013674362 0.014074723 0.014268709 0.0143918265
0002f0 76 55 71 3c 0b 28 76 3c 16 4f 7c 3c 69 a1 7f 3c
       0.014729848 0.015024195 0.015399715 0.015602448
000300 35 84 81 3c a7 9a 86 3c 3e c3 87 3c 2f 7c 8b 3c
       0.015810112 0.016431166 0.01657259 0.017026989
000310 03 02 90 3c 65 6d 92 3c a1 0c 94 3c ea 83 98 3c
       0.017579084 0.017874429 0.018072428 0.018617589
000320 78 4c 9b 3c bf 68 a2 3c 92 84 aa 3c dd 16 ab 3c
       0.018957362 0.019825337 0.020815168 0.020884925
000330 8b 36 b1 3c b1 1b b5 3c a5 18 b6 3c 4c c7 ba 3c
       0.021632453 0.02210793 0.022228548 0.02280011
000340 c9 a0 c2 3c d0 33 c9 3c 1b b3 cb 3c 94 4d d3 3c
       0.023758309 0.024560839 0.024865678 0.025793828
000350 59 dd dc 3c 3e e5 e2 3c 08 84 e4 3c 79 ed eb 3c
       0.026961016 0.027697202 0.027894989 0.02879976
000360 20 ff f1 3c 9a 1d f7 3c 54 10 01 3d c6 2e 09 3d
       0.029540598 0.030165482 0.031509712 0.033491872
000370 7b 55 0c 3d 90 09 19 3d be 7f 1d 3d d7 d5 1e 3d
       0.034261208 0.037362635 0.038451903 0.038778152
000380 45 27 25 3d 55 05 28 3d 87 64 30 3d 85 af 36 3d
       0.040320653 0.04102071 0.04306462 0.044600982
000390 72 fd 39 3d c8 ec 4b 3d cf af 53 3d 2d ee 60 3d
       0.04540772 0.04978636 0.051681336 0.054914642
0003a0 c5 94 67 3d 9e 88 7c 3d 5b 33 82 3d 57 e6 86 3d
       0.056538362 0.061653726 0.063574515 0.065869026
0003b0 89 38 9b 3d 38 1f a0 3d eb 78 a7 3d 7a 28 b5 3d
       0.075791426 0.078184545 0.0817736 0.08845611
0003c0 84 b8 bc 3d 1d a2 c7 3d d0 6e d4 3d 12 26 e6 3d
       0.09214881 0.097477175 0.10372698 0.1123773
0003d0 cf 3e f9 3d 88 2d 0a 3e a0 18 0f 3e b8 b6 30 3e
       0.12170183 0.13493931 0.13974237 0.17257202
0003e0 6d 47 63 3e 6b 51 82 3e 19 84 96 3e 8f 18 b7 3e
       0.22195216 0.25452742 0.29397658 0.35760924
0003f0 a0 ef d4 3e 76 e3 09 3f 86 99 26 3f 76 c9 3e 3f
       0.4158907 0.538627 0.6507801 0.74526155

transformer.h.2.mlp.c_proj f4 [64]
000000 a0 13 5e b5 8b 05 c8 3e 68 1b cc 3e fa 42 d0 3e
       -8.273e-07 0.3906673 0.3986466 0.406761
000010 15 45 da 3e 46 cc e4 3e ee 17 e9 3e 34 ee f9 3e
       0.4263083 0.44687098 0.4552607 0.48814547
000020 00 b7 fc 3e fa ad 02 3f a3 22 08 3f 0d d5 09 3f
       0.49358368 0.5104672 0.5317785 0.53840715
000030 a6 17 12 3f c1 36 13 3f 3c 8a 18 3f 4a 0f 19 3f
       0.57067335 0.5750542 0.5958593 0.59788954
000040 e9 a4 1f 3f dc 44 22 3f b1 66 25 3f 76 df 28 3f
       0.6236101 0.6338632 0.6460982 0.65965974
000050 d5 6d 31 3f 25 0d 3c 3f c3 25 3c 3f 5e 6c 41 3f
       0.69308215 0.73457557 0.7349512 0.7555598
000060 db c8 46 3f d6 fb 4a 3f 48 14 50 3f b3 30 54 3f
       0.7765023 0.7929052 0.81280947 0.8288681
000070 89 6f 67 3f f3 82 71 3f a2 0c 7d 3f 3f 44 84 3f
       0.90404564 0.9434044 0.988474 1.0333327
000080 68 56 87 3f ef 2b 8a 3f 84 73 8d 3f 36 73 8f 3f
       1.0573244 1.0794657 1.1050878 1.1207035
000090 d4 7e 95 3f e6 f5 9a 3f 35 88 a4 3f 4b 23 aa 3f
       1.167933 1.2106292 1.2854067 1.329202
0000a0 cd 69 ab 3f c4 98 b7 3f 95 62 bf 3f 3e 00 c7 3f
       1.3391663 1.4343495 1.495196 1.5546949
0000b0 df aa c7 3f e9 bc d3 3f 3f ce e6 3f 83 58 f5 3f
       1.5599021 1.6542026 1.8031691 1.9167637
0000c0 ab ce fc 3f 67 ea 04 40 2a 26 13 40 7c 62 28 40
       1.975057 2.0768068 2.2992043 2.631011
0000d0 a8 4f 33 40 ea 19 34 40 d4 18 43 40 ec a4 4e 40
       2.8017368 2.8140817 3.0483904 3.228816
0000e0 3b 52 5d 40 8c 1e 85 40 70 89 8d 40 d0 a2 d3 40
       3.458144 4.159979 4.423027 6.6136246
0000f0 e9 be 01 41 92 5e 1b 41 2b 75 81 41 2b 5c e2 42
       8.109109 9.710588 16.18221 113.180016
